{"format": "graph-model", "generatedBy": "2.1.3", "convertedBy": "TensorFlow.js Converter v1.4.0", "userDefinedMetadata": {"signature": {"inputs": {"input_1:0": {"name": "input_1:0", "dtype": "DT_FLOAT", "tensorShape": {"dim": [{"size": "-1"}, {"size": "224"}, {"size": "224"}, {"size": "3"}]}}}, "outputs": {"Identity:0": {"name": "Identity:0", "dtype": "DT_FLOAT", "tensorShape": {"dim": [{"size": "-1"}, {"size": "3"}]}}}}}, "modelTopology": {"node": [{"name": "input_1", "op": "Placeholder", "attr": {"dtype": {"type": "DT_FLOAT"}, "shape": {"shape": {"dim": [{"size": "-1"}, {"size": "224"}, {"size": "224"}, {"size": "3"}]}}}}, {"name": "StatefulPartitionedCall/sequential/keras_layer/StatefulPartitionedCall/StatefulPartitionedCall/StatefulPartitionedCall/predict/MobilenetV2/Conv/Conv2D_weights", "op": "Const", "attr": {"dtype": {"type": "DT_FLOAT"}, "value": {"tensor": {"dtype": "DT_FLOAT", "tensorShape": {"dim": [{"size": "3"}, {"size": "3"}, {"size": "3"}, {"size": "32"}]}}}}}, {"name": "StatefulPartitionedCall/sequential/keras_layer/StatefulPartitionedCall/StatefulPartitionedCall/StatefulPartitionedCall/predict/MobilenetV2/Conv/Conv2D_bn_offset", "op": "Const", "attr": {"dtype": {"type": "DT_FLOAT"}, "value": {"tensor": {"dtype": "DT_FLOAT", "tensorShape": {"dim": [{"size": "32"}]}}}}}, {"name": "StatefulPartitionedCall/sequential/keras_layer/StatefulPartitionedCall/StatefulPartitionedCall/StatefulPartitionedCall/predict/MobilenetV2/expanded_conv_14/expand/Conv2D_bn_offset", "op": "Const", "attr": {"dtype": {"type": "DT_FLOAT"}, "value": {"tensor": {"dtype": "DT_FLOAT", "tensorShape": {"dim": [{"size": "960"}]}}}}}, {"name": "StatefulPartitionedCall/sequential/keras_layer/StatefulPartitionedCall/StatefulPartitionedCall/StatefulPartitionedCall/predict/MobilenetV2/expanded_conv/depthwise/depthwise_weights", "op": "Const", "attr": {"dtype": {"type": "DT_FLOAT"}, "value": {"tensor": {"dtype": "DT_FLOAT", "tensorShape": {"dim": [{"size": "3"}, {"size": "3"}, {"size": "32"}, {"size": "1"}]}}}}}, {"name": "StatefulPartitionedCall/sequential/keras_layer/StatefulPartitionedCall/StatefulPartitionedCall/StatefulPartitionedCall/predict/MobilenetV2/expanded_conv/depthwise/depthwise_bn_offset", "op": "Const", "attr": {"value": {"tensor": {"dtype": "DT_FLOAT", "tensorShape": {"dim": [{"size": "32"}]}}}, "dtype": {"type": "DT_FLOAT"}}}, {"name": "StatefulPartitionedCall/sequential/keras_layer/StatefulPartitionedCall/StatefulPartitionedCall/StatefulPartitionedCall/predict/MobilenetV2/expanded_conv/project/Conv2D_weights", "op": "Const", "attr": {"dtype": {"type": "DT_FLOAT"}, "value": {"tensor": {"dtype": "DT_FLOAT", "tensorShape": {"dim": [{"size": "1"}, {"size": "1"}, {"size": "32"}, {"size": "16"}]}}}}}, {"name": "StatefulPartitionedCall/sequential/keras_layer/StatefulPartitionedCall/StatefulPartitionedCall/StatefulPartitionedCall/predict/MobilenetV2/Conv_1/Conv2D_weights", "op": "Const", "attr": {"dtype": {"type": "DT_FLOAT"}, "value": {"tensor": {"dtype": "DT_FLOAT", "tensorShape": {"dim": [{"size": "1"}, {"size": "1"}, {"size": "320"}, {"size": "1280"}]}}}}}, {"name": "StatefulPartitionedCall/sequential/keras_layer/StatefulPartitionedCall/StatefulPartitionedCall/StatefulPartitionedCall/predict/MobilenetV2/expanded_conv/project/Conv2D_bn_offset", "op": "Const", "attr": {"value": {"tensor": {"dtype": "DT_FLOAT", "tensorShape": {"dim": [{"size": "16"}]}}}, "dtype": {"type": "DT_FLOAT"}}}, {"name": "StatefulPartitionedCall/sequential/keras_layer/StatefulPartitionedCall/StatefulPartitionedCall/StatefulPartitionedCall/predict/MobilenetV2/expanded_conv_1/expand/Conv2D_weights", "op": "Const", "attr": {"value": {"tensor": {"dtype": "DT_FLOAT", "tensorShape": {"dim": [{"size": "1"}, {"size": "1"}, {"size": "16"}, {"size": "96"}]}}}, "dtype": {"type": "DT_FLOAT"}}}, {"name": "StatefulPartitionedCall/sequential/keras_layer/StatefulPartitionedCall/StatefulPartitionedCall/StatefulPartitionedCall/predict/MobilenetV2/expanded_conv_1/expand/Conv2D_bn_offset", "op": "Const", "attr": {"value": {"tensor": {"dtype": "DT_FLOAT", "tensorShape": {"dim": [{"size": "96"}]}}}, "dtype": {"type": "DT_FLOAT"}}}, {"name": "StatefulPartitionedCall/sequential/keras_layer/StatefulPartitionedCall/StatefulPartitionedCall/StatefulPartitionedCall/predict/MobilenetV2/expanded_conv_14/depthwise/depthwise_weights", "op": "Const", "attr": {"dtype": {"type": "DT_FLOAT"}, "value": {"tensor": {"dtype": "DT_FLOAT", "tensorShape": {"dim": [{"size": "3"}, {"size": "3"}, {"size": "960"}, {"size": "1"}]}}}}}, {"name": "StatefulPartitionedCall/sequential/keras_layer/StatefulPartitionedCall/StatefulPartitionedCall/StatefulPartitionedCall/predict/MobilenetV2/expanded_conv_1/depthwise/depthwise_weights", "op": "Const", "attr": {"dtype": {"type": "DT_FLOAT"}, "value": {"tensor": {"dtype": "DT_FLOAT", "tensorShape": {"dim": [{"size": "3"}, {"size": "3"}, {"size": "96"}, {"size": "1"}]}}}}}, {"name": "StatefulPartitionedCall/sequential/keras_layer/StatefulPartitionedCall/StatefulPartitionedCall/StatefulPartitionedCall/predict/MobilenetV2/expanded_conv_1/depthwise/depthwise_bn_offset", "op": "Const", "attr": {"value": {"tensor": {"dtype": "DT_FLOAT", "tensorShape": {"dim": [{"size": "96"}]}}}, "dtype": {"type": "DT_FLOAT"}}}, {"name": "StatefulPartitionedCall/sequential/keras_layer/StatefulPartitionedCall/StatefulPartitionedCall/StatefulPartitionedCall/predict/MobilenetV2/expanded_conv_1/project/Conv2D_weights", "op": "Const", "attr": {"dtype": {"type": "DT_FLOAT"}, "value": {"tensor": {"dtype": "DT_FLOAT", "tensorShape": {"dim": [{"size": "1"}, {"size": "1"}, {"size": "96"}, {"size": "24"}]}}}}}, {"name": "StatefulPartitionedCall/sequential/keras_layer/StatefulPartitionedCall/StatefulPartitionedCall/StatefulPartitionedCall/predict/MobilenetV2/expanded_conv_1/project/Conv2D_bn_offset", "op": "Const", "attr": {"value": {"tensor": {"dtype": "DT_FLOAT", "tensorShape": {"dim": [{"size": "24"}]}}}, "dtype": {"type": "DT_FLOAT"}}}, {"name": "StatefulPartitionedCall/sequential/keras_layer/StatefulPartitionedCall/StatefulPartitionedCall/StatefulPartitionedCall/predict/MobilenetV2/expanded_conv_2/expand/Conv2D_weights", "op": "Const", "attr": {"dtype": {"type": "DT_FLOAT"}, "value": {"tensor": {"dtype": "DT_FLOAT", "tensorShape": {"dim": [{"size": "1"}, {"size": "1"}, {"size": "24"}, {"size": "144"}]}}}}}, {"name": "StatefulPartitionedCall/sequential/keras_layer/StatefulPartitionedCall/StatefulPartitionedCall/StatefulPartitionedCall/predict/MobilenetV2/expanded_conv_14/depthwise/depthwise_bn_offset", "op": "Const", "attr": {"dtype": {"type": "DT_FLOAT"}, "value": {"tensor": {"dtype": "DT_FLOAT", "tensorShape": {"dim": [{"size": "960"}]}}}}}, {"name": "StatefulPartitionedCall/sequential/keras_layer/StatefulPartitionedCall/StatefulPartitionedCall/StatefulPartitionedCall/predict/MobilenetV2/expanded_conv_2/expand/Conv2D_bn_offset", "op": "Const", "attr": {"dtype": {"type": "DT_FLOAT"}, "value": {"tensor": {"dtype": "DT_FLOAT", "tensorShape": {"dim": [{"size": "144"}]}}}}}, {"name": "StatefulPartitionedCall/sequential/keras_layer/StatefulPartitionedCall/StatefulPartitionedCall/StatefulPartitionedCall/predict/MobilenetV2/expanded_conv_2/depthwise/depthwise_weights", "op": "Const", "attr": {"value": {"tensor": {"dtype": "DT_FLOAT", "tensorShape": {"dim": [{"size": "3"}, {"size": "3"}, {"size": "144"}, {"size": "1"}]}}}, "dtype": {"type": "DT_FLOAT"}}}, {"name": "StatefulPartitionedCall/sequential/keras_layer/StatefulPartitionedCall/StatefulPartitionedCall/StatefulPartitionedCall/predict/MobilenetV2/expanded_conv_2/depthwise/depthwise_bn_offset", "op": "Const", "attr": {"value": {"tensor": {"dtype": "DT_FLOAT", "tensorShape": {"dim": [{"size": "144"}]}}}, "dtype": {"type": "DT_FLOAT"}}}, {"name": "StatefulPartitionedCall/sequential/keras_layer/StatefulPartitionedCall/StatefulPartitionedCall/StatefulPartitionedCall/predict/MobilenetV2/expanded_conv_2/project/Conv2D_weights", "op": "Const", "attr": {"value": {"tensor": {"dtype": "DT_FLOAT", "tensorShape": {"dim": [{"size": "1"}, {"size": "1"}, {"size": "144"}, {"size": "24"}]}}}, "dtype": {"type": "DT_FLOAT"}}}, {"name": "StatefulPartitionedCall/sequential/keras_layer/StatefulPartitionedCall/StatefulPartitionedCall/StatefulPartitionedCall/predict/MobilenetV2/expanded_conv_2/project/Conv2D_bn_offset", "op": "Const", "attr": {"value": {"tensor": {"dtype": "DT_FLOAT", "tensorShape": {"dim": [{"size": "24"}]}}}, "dtype": {"type": "DT_FLOAT"}}}, {"name": "StatefulPartitionedCall/sequential/keras_layer/StatefulPartitionedCall/StatefulPartitionedCall/StatefulPartitionedCall/predict/MobilenetV2/expanded_conv_3/expand/Conv2D_weights", "op": "Const", "attr": {"dtype": {"type": "DT_FLOAT"}, "value": {"tensor": {"dtype": "DT_FLOAT", "tensorShape": {"dim": [{"size": "1"}, {"size": "1"}, {"size": "24"}, {"size": "144"}]}}}}}, {"name": "StatefulPartitionedCall/sequential/keras_layer/StatefulPartitionedCall/StatefulPartitionedCall/StatefulPartitionedCall/predict/MobilenetV2/expanded_conv_14/project/Conv2D_weights", "op": "Const", "attr": {"value": {"tensor": {"dtype": "DT_FLOAT", "tensorShape": {"dim": [{"size": "1"}, {"size": "1"}, {"size": "960"}, {"size": "160"}]}}}, "dtype": {"type": "DT_FLOAT"}}}, {"name": "StatefulPartitionedCall/sequential/keras_layer/StatefulPartitionedCall/StatefulPartitionedCall/StatefulPartitionedCall/predict/MobilenetV2/expanded_conv_3/expand/Conv2D_bn_offset", "op": "Const", "attr": {"dtype": {"type": "DT_FLOAT"}, "value": {"tensor": {"dtype": "DT_FLOAT", "tensorShape": {"dim": [{"size": "144"}]}}}}}, {"name": "StatefulPartitionedCall/sequential/keras_layer/StatefulPartitionedCall/StatefulPartitionedCall/StatefulPartitionedCall/predict/MobilenetV2/expanded_conv_3/depthwise/depthwise_weights", "op": "Const", "attr": {"dtype": {"type": "DT_FLOAT"}, "value": {"tensor": {"dtype": "DT_FLOAT", "tensorShape": {"dim": [{"size": "3"}, {"size": "3"}, {"size": "144"}, {"size": "1"}]}}}}}, {"name": "StatefulPartitionedCall/sequential/keras_layer/StatefulPartitionedCall/StatefulPartitionedCall/StatefulPartitionedCall/predict/MobilenetV2/expanded_conv_3/depthwise/depthwise_bn_offset", "op": "Const", "attr": {"dtype": {"type": "DT_FLOAT"}, "value": {"tensor": {"dtype": "DT_FLOAT", "tensorShape": {"dim": [{"size": "144"}]}}}}}, {"name": "StatefulPartitionedCall/sequential/keras_layer/StatefulPartitionedCall/StatefulPartitionedCall/StatefulPartitionedCall/predict/MobilenetV2/expanded_conv_3/project/Conv2D_weights", "op": "Const", "attr": {"dtype": {"type": "DT_FLOAT"}, "value": {"tensor": {"dtype": "DT_FLOAT", "tensorShape": {"dim": [{"size": "1"}, {"size": "1"}, {"size": "144"}, {"size": "32"}]}}}}}, {"name": "StatefulPartitionedCall/sequential/keras_layer/StatefulPartitionedCall/StatefulPartitionedCall/StatefulPartitionedCall/predict/MobilenetV2/expanded_conv_14/project/Conv2D_bn_offset", "op": "Const", "attr": {"value": {"tensor": {"dtype": "DT_FLOAT", "tensorShape": {"dim": [{"size": "160"}]}}}, "dtype": {"type": "DT_FLOAT"}}}, {"name": "StatefulPartitionedCall/sequential/keras_layer/StatefulPartitionedCall/StatefulPartitionedCall/StatefulPartitionedCall/predict/MobilenetV2/expanded_conv_3/project/Conv2D_bn_offset", "op": "Const", "attr": {"value": {"tensor": {"dtype": "DT_FLOAT", "tensorShape": {"dim": [{"size": "32"}]}}}, "dtype": {"type": "DT_FLOAT"}}}, {"name": "StatefulPartitionedCall/sequential/keras_layer/StatefulPartitionedCall/StatefulPartitionedCall/StatefulPartitionedCall/predict/MobilenetV2/expanded_conv_4/expand/Conv2D_weights", "op": "Const", "attr": {"value": {"tensor": {"dtype": "DT_FLOAT", "tensorShape": {"dim": [{"size": "1"}, {"size": "1"}, {"size": "32"}, {"size": "192"}]}}}, "dtype": {"type": "DT_FLOAT"}}}, {"name": "StatefulPartitionedCall/sequential/keras_layer/StatefulPartitionedCall/StatefulPartitionedCall/StatefulPartitionedCall/predict/MobilenetV2/expanded_conv_4/expand/Conv2D_bn_offset", "op": "Const", "attr": {"value": {"tensor": {"dtype": "DT_FLOAT", "tensorShape": {"dim": [{"size": "192"}]}}}, "dtype": {"type": "DT_FLOAT"}}}, {"name": "StatefulPartitionedCall/sequential/keras_layer/StatefulPartitionedCall/StatefulPartitionedCall/StatefulPartitionedCall/predict/MobilenetV2/expanded_conv_4/depthwise/depthwise_weights", "op": "Const", "attr": {"value": {"tensor": {"dtype": "DT_FLOAT", "tensorShape": {"dim": [{"size": "3"}, {"size": "3"}, {"size": "192"}, {"size": "1"}]}}}, "dtype": {"type": "DT_FLOAT"}}}, {"name": "StatefulPartitionedCall/sequential/keras_layer/StatefulPartitionedCall/StatefulPartitionedCall/StatefulPartitionedCall/predict/MobilenetV2/expanded_conv_4/depthwise/depthwise_bn_offset", "op": "Const", "attr": {"value": {"tensor": {"dtype": "DT_FLOAT", "tensorShape": {"dim": [{"size": "192"}]}}}, "dtype": {"type": "DT_FLOAT"}}}, {"name": "StatefulPartitionedCall/sequential/keras_layer/StatefulPartitionedCall/StatefulPartitionedCall/StatefulPartitionedCall/predict/MobilenetV2/expanded_conv_4/project/Conv2D_weights", "op": "Const", "attr": {"dtype": {"type": "DT_FLOAT"}, "value": {"tensor": {"dtype": "DT_FLOAT", "tensorShape": {"dim": [{"size": "1"}, {"size": "1"}, {"size": "192"}, {"size": "32"}]}}}}}, {"name": "StatefulPartitionedCall/sequential/keras_layer/StatefulPartitionedCall/StatefulPartitionedCall/StatefulPartitionedCall/predict/MobilenetV2/expanded_conv_15/expand/Conv2D_weights", "op": "Const", "attr": {"value": {"tensor": {"dtype": "DT_FLOAT", "tensorShape": {"dim": [{"size": "1"}, {"size": "1"}, {"size": "160"}, {"size": "960"}]}}}, "dtype": {"type": "DT_FLOAT"}}}, {"name": "StatefulPartitionedCall/sequential/keras_layer/StatefulPartitionedCall/StatefulPartitionedCall/StatefulPartitionedCall/predict/MobilenetV2/expanded_conv_4/project/Conv2D_bn_offset", "op": "Const", "attr": {"dtype": {"type": "DT_FLOAT"}, "value": {"tensor": {"dtype": "DT_FLOAT", "tensorShape": {"dim": [{"size": "32"}]}}}}}, {"name": "StatefulPartitionedCall/sequential/keras_layer/StatefulPartitionedCall/StatefulPartitionedCall/StatefulPartitionedCall/predict/MobilenetV2/expanded_conv_5/expand/Conv2D_weights", "op": "Const", "attr": {"value": {"tensor": {"dtype": "DT_FLOAT", "tensorShape": {"dim": [{"size": "1"}, {"size": "1"}, {"size": "32"}, {"size": "192"}]}}}, "dtype": {"type": "DT_FLOAT"}}}, {"name": "StatefulPartitionedCall/sequential/keras_layer/StatefulPartitionedCall/StatefulPartitionedCall/StatefulPartitionedCall/predict/MobilenetV2/Conv_1/Conv2D_bn_offset", "op": "Const", "attr": {"dtype": {"type": "DT_FLOAT"}, "value": {"tensor": {"dtype": "DT_FLOAT", "tensorShape": {"dim": [{"size": "1280"}]}}}}}, {"name": "StatefulPartitionedCall/sequential/keras_layer/StatefulPartitionedCall/StatefulPartitionedCall/StatefulPartitionedCall/predict/MobilenetV2/expanded_conv_5/expand/Conv2D_bn_offset", "op": "Const", "attr": {"value": {"tensor": {"dtype": "DT_FLOAT", "tensorShape": {"dim": [{"size": "192"}]}}}, "dtype": {"type": "DT_FLOAT"}}}, {"name": "StatefulPartitionedCall/sequential/keras_layer/StatefulPartitionedCall/StatefulPartitionedCall/StatefulPartitionedCall/predict/MobilenetV2/expanded_conv_15/expand/Conv2D_bn_offset", "op": "Const", "attr": {"dtype": {"type": "DT_FLOAT"}, "value": {"tensor": {"dtype": "DT_FLOAT", "tensorShape": {"dim": [{"size": "960"}]}}}}}, {"name": "StatefulPartitionedCall/sequential/keras_layer/StatefulPartitionedCall/StatefulPartitionedCall/StatefulPartitionedCall/predict/MobilenetV2/expanded_conv_5/depthwise/depthwise_weights", "op": "Const", "attr": {"value": {"tensor": {"dtype": "DT_FLOAT", "tensorShape": {"dim": [{"size": "3"}, {"size": "3"}, {"size": "192"}, {"size": "1"}]}}}, "dtype": {"type": "DT_FLOAT"}}}, {"name": "StatefulPartitionedCall/sequential/keras_layer/StatefulPartitionedCall/StatefulPartitionedCall/StatefulPartitionedCall/predict/MobilenetV2/expanded_conv_5/depthwise/depthwise_bn_offset", "op": "Const", "attr": {"dtype": {"type": "DT_FLOAT"}, "value": {"tensor": {"dtype": "DT_FLOAT", "tensorShape": {"dim": [{"size": "192"}]}}}}}, {"name": "StatefulPartitionedCall/sequential/keras_layer/StatefulPartitionedCall/StatefulPartitionedCall/StatefulPartitionedCall/predict/MobilenetV2/expanded_conv_5/project/Conv2D_weights", "op": "Const", "attr": {"value": {"tensor": {"dtype": "DT_FLOAT", "tensorShape": {"dim": [{"size": "1"}, {"size": "1"}, {"size": "192"}, {"size": "32"}]}}}, "dtype": {"type": "DT_FLOAT"}}}, {"name": "StatefulPartitionedCall/sequential/keras_layer/StatefulPartitionedCall/StatefulPartitionedCall/StatefulPartitionedCall/predict/MobilenetV2/expanded_conv_5/project/Conv2D_bn_offset", "op": "Const", "attr": {"value": {"tensor": {"dtype": "DT_FLOAT", "tensorShape": {"dim": [{"size": "32"}]}}}, "dtype": {"type": "DT_FLOAT"}}}, {"name": "StatefulPartitionedCall/sequential/keras_layer/StatefulPartitionedCall/StatefulPartitionedCall/StatefulPartitionedCall/predict/MobilenetV2/expanded_conv_6/expand/Conv2D_weights", "op": "Const", "attr": {"value": {"tensor": {"dtype": "DT_FLOAT", "tensorShape": {"dim": [{"size": "1"}, {"size": "1"}, {"size": "32"}, {"size": "192"}]}}}, "dtype": {"type": "DT_FLOAT"}}}, {"name": "StatefulPartitionedCall/sequential/keras_layer/StatefulPartitionedCall/StatefulPartitionedCall/StatefulPartitionedCall/predict/MobilenetV2/expanded_conv_6/expand/Conv2D_bn_offset", "op": "Const", "attr": {"dtype": {"type": "DT_FLOAT"}, "value": {"tensor": {"dtype": "DT_FLOAT", "tensorShape": {"dim": [{"size": "192"}]}}}}}, {"name": "StatefulPartitionedCall/sequential/keras_layer/StatefulPartitionedCall/StatefulPartitionedCall/StatefulPartitionedCall/predict/MobilenetV2/expanded_conv_15/depthwise/depthwise_weights", "op": "Const", "attr": {"dtype": {"type": "DT_FLOAT"}, "value": {"tensor": {"dtype": "DT_FLOAT", "tensorShape": {"dim": [{"size": "3"}, {"size": "3"}, {"size": "960"}, {"size": "1"}]}}}}}, {"name": "StatefulPartitionedCall/sequential/keras_layer/StatefulPartitionedCall/StatefulPartitionedCall/StatefulPartitionedCall/predict/MobilenetV2/expanded_conv_6/depthwise/depthwise_weights", "op": "Const", "attr": {"value": {"tensor": {"dtype": "DT_FLOAT", "tensorShape": {"dim": [{"size": "3"}, {"size": "3"}, {"size": "192"}, {"size": "1"}]}}}, "dtype": {"type": "DT_FLOAT"}}}, {"name": "StatefulPartitionedCall/sequential/keras_layer/StatefulPartitionedCall/StatefulPartitionedCall/StatefulPartitionedCall/predict/MobilenetV2/expanded_conv_6/depthwise/depthwise_bn_offset", "op": "Const", "attr": {"dtype": {"type": "DT_FLOAT"}, "value": {"tensor": {"dtype": "DT_FLOAT", "tensorShape": {"dim": [{"size": "192"}]}}}}}, {"name": "StatefulPartitionedCall/sequential/keras_layer/StatefulPartitionedCall/StatefulPartitionedCall/StatefulPartitionedCall/predict/MobilenetV2/expanded_conv_6/project/Conv2D_weights", "op": "Const", "attr": {"dtype": {"type": "DT_FLOAT"}, "value": {"tensor": {"dtype": "DT_FLOAT", "tensorShape": {"dim": [{"size": "1"}, {"size": "1"}, {"size": "192"}, {"size": "64"}]}}}}}, {"name": "StatefulPartitionedCall/sequential/keras_layer/StatefulPartitionedCall/StatefulPartitionedCall/StatefulPartitionedCall/predict/MobilenetV2/expanded_conv_6/project/Conv2D_bn_offset", "op": "Const", "attr": {"dtype": {"type": "DT_FLOAT"}, "value": {"tensor": {"dtype": "DT_FLOAT", "tensorShape": {"dim": [{"size": "64"}]}}}}}, {"name": "StatefulPartitionedCall/sequential/keras_layer/StatefulPartitionedCall/StatefulPartitionedCall/StatefulPartitionedCall/predict/MobilenetV2/expanded_conv_7/expand/Conv2D_weights", "op": "Const", "attr": {"dtype": {"type": "DT_FLOAT"}, "value": {"tensor": {"dtype": "DT_FLOAT", "tensorShape": {"dim": [{"size": "1"}, {"size": "1"}, {"size": "64"}, {"size": "384"}]}}}}}, {"name": "StatefulPartitionedCall/sequential/keras_layer/StatefulPartitionedCall/StatefulPartitionedCall/StatefulPartitionedCall/predict/MobilenetV2/expanded_conv_15/depthwise/depthwise_bn_offset", "op": "Const", "attr": {"dtype": {"type": "DT_FLOAT"}, "value": {"tensor": {"dtype": "DT_FLOAT", "tensorShape": {"dim": [{"size": "960"}]}}}}}, {"name": "StatefulPartitionedCall/sequential/keras_layer/StatefulPartitionedCall/StatefulPartitionedCall/StatefulPartitionedCall/predict/MobilenetV2/expanded_conv_7/expand/Conv2D_bn_offset", "op": "Const", "attr": {"dtype": {"type": "DT_FLOAT"}, "value": {"tensor": {"dtype": "DT_FLOAT", "tensorShape": {"dim": [{"size": "384"}]}}}}}, {"name": "StatefulPartitionedCall/sequential/keras_layer/StatefulPartitionedCall/StatefulPartitionedCall/StatefulPartitionedCall/predict/MobilenetV2/expanded_conv_7/depthwise/depthwise_weights", "op": "Const", "attr": {"value": {"tensor": {"dtype": "DT_FLOAT", "tensorShape": {"dim": [{"size": "3"}, {"size": "3"}, {"size": "384"}, {"size": "1"}]}}}, "dtype": {"type": "DT_FLOAT"}}}, {"name": "StatefulPartitionedCall/sequential/keras_layer/StatefulPartitionedCall/StatefulPartitionedCall/StatefulPartitionedCall/predict/MobilenetV2/expanded_conv_7/depthwise/depthwise_bn_offset", "op": "Const", "attr": {"value": {"tensor": {"dtype": "DT_FLOAT", "tensorShape": {"dim": [{"size": "384"}]}}}, "dtype": {"type": "DT_FLOAT"}}}, {"name": "StatefulPartitionedCall/sequential/keras_layer/StatefulPartitionedCall/StatefulPartitionedCall/StatefulPartitionedCall/predict/MobilenetV2/expanded_conv_7/project/Conv2D_weights", "op": "Const", "attr": {"dtype": {"type": "DT_FLOAT"}, "value": {"tensor": {"dtype": "DT_FLOAT", "tensorShape": {"dim": [{"size": "1"}, {"size": "1"}, {"size": "384"}, {"size": "64"}]}}}}}, {"name": "StatefulPartitionedCall/sequential/keras_layer/StatefulPartitionedCall/StatefulPartitionedCall/StatefulPartitionedCall/predict/MobilenetV2/expanded_conv_7/project/Conv2D_bn_offset", "op": "Const", "attr": {"value": {"tensor": {"dtype": "DT_FLOAT", "tensorShape": {"dim": [{"size": "64"}]}}}, "dtype": {"type": "DT_FLOAT"}}}, {"name": "StatefulPartitionedCall/sequential/keras_layer/StatefulPartitionedCall/StatefulPartitionedCall/StatefulPartitionedCall/predict/MobilenetV2/expanded_conv_8/expand/Conv2D_weights", "op": "Const", "attr": {"value": {"tensor": {"dtype": "DT_FLOAT", "tensorShape": {"dim": [{"size": "1"}, {"size": "1"}, {"size": "64"}, {"size": "384"}]}}}, "dtype": {"type": "DT_FLOAT"}}}, {"name": "StatefulPartitionedCall/sequential/keras_layer/StatefulPartitionedCall/StatefulPartitionedCall/StatefulPartitionedCall/predict/MobilenetV2/expanded_conv_15/project/Conv2D_weights", "op": "Const", "attr": {"dtype": {"type": "DT_FLOAT"}, "value": {"tensor": {"dtype": "DT_FLOAT", "tensorShape": {"dim": [{"size": "1"}, {"size": "1"}, {"size": "960"}, {"size": "160"}]}}}}}, {"name": "StatefulPartitionedCall/sequential/keras_layer/StatefulPartitionedCall/StatefulPartitionedCall/StatefulPartitionedCall/predict/MobilenetV2/expanded_conv_8/expand/Conv2D_bn_offset", "op": "Const", "attr": {"value": {"tensor": {"dtype": "DT_FLOAT", "tensorShape": {"dim": [{"size": "384"}]}}}, "dtype": {"type": "DT_FLOAT"}}}, {"name": "StatefulPartitionedCall/sequential/keras_layer/StatefulPartitionedCall/StatefulPartitionedCall/StatefulPartitionedCall/predict/MobilenetV2/expanded_conv_8/depthwise/depthwise_weights", "op": "Const", "attr": {"value": {"tensor": {"dtype": "DT_FLOAT", "tensorShape": {"dim": [{"size": "3"}, {"size": "3"}, {"size": "384"}, {"size": "1"}]}}}, "dtype": {"type": "DT_FLOAT"}}}, {"name": "StatefulPartitionedCall/sequential/keras_layer/StatefulPartitionedCall/StatefulPartitionedCall/StatefulPartitionedCall/predict/MobilenetV2/expanded_conv_8/depthwise/depthwise_bn_offset", "op": "Const", "attr": {"dtype": {"type": "DT_FLOAT"}, "value": {"tensor": {"dtype": "DT_FLOAT", "tensorShape": {"dim": [{"size": "384"}]}}}}}, {"name": "StatefulPartitionedCall/sequential/keras_layer/StatefulPartitionedCall/StatefulPartitionedCall/StatefulPartitionedCall/predict/MobilenetV2/expanded_conv_8/project/Conv2D_weights", "op": "Const", "attr": {"dtype": {"type": "DT_FLOAT"}, "value": {"tensor": {"dtype": "DT_FLOAT", "tensorShape": {"dim": [{"size": "1"}, {"size": "1"}, {"size": "384"}, {"size": "64"}]}}}}}, {"name": "StatefulPartitionedCall/sequential/keras_layer/StatefulPartitionedCall/StatefulPartitionedCall/StatefulPartitionedCall/predict/MobilenetV2/expanded_conv_15/project/Conv2D_bn_offset", "op": "Const", "attr": {"dtype": {"type": "DT_FLOAT"}, "value": {"tensor": {"dtype": "DT_FLOAT", "tensorShape": {"dim": [{"size": "160"}]}}}}}, {"name": "StatefulPartitionedCall/sequential/keras_layer/StatefulPartitionedCall/StatefulPartitionedCall/StatefulPartitionedCall/predict/MobilenetV2/expanded_conv_8/project/Conv2D_bn_offset", "op": "Const", "attr": {"dtype": {"type": "DT_FLOAT"}, "value": {"tensor": {"dtype": "DT_FLOAT", "tensorShape": {"dim": [{"size": "64"}]}}}}}, {"name": "StatefulPartitionedCall/sequential/keras_layer/StatefulPartitionedCall/StatefulPartitionedCall/StatefulPartitionedCall/predict/MobilenetV2/expanded_conv_9/expand/Conv2D_weights", "op": "Const", "attr": {"dtype": {"type": "DT_FLOAT"}, "value": {"tensor": {"dtype": "DT_FLOAT", "tensorShape": {"dim": [{"size": "1"}, {"size": "1"}, {"size": "64"}, {"size": "384"}]}}}}}, {"name": "StatefulPartitionedCall/sequential/keras_layer/StatefulPartitionedCall/StatefulPartitionedCall/StatefulPartitionedCall/predict/MobilenetV2/expanded_conv_9/expand/Conv2D_bn_offset", "op": "Const", "attr": {"value": {"tensor": {"dtype": "DT_FLOAT", "tensorShape": {"dim": [{"size": "384"}]}}}, "dtype": {"type": "DT_FLOAT"}}}, {"name": "StatefulPartitionedCall/sequential/keras_layer/StatefulPartitionedCall/StatefulPartitionedCall/StatefulPartitionedCall/predict/MobilenetV2/expanded_conv_9/depthwise/depthwise_weights", "op": "Const", "attr": {"dtype": {"type": "DT_FLOAT"}, "value": {"tensor": {"dtype": "DT_FLOAT", "tensorShape": {"dim": [{"size": "3"}, {"size": "3"}, {"size": "384"}, {"size": "1"}]}}}}}, {"name": "StatefulPartitionedCall/sequential/keras_layer/StatefulPartitionedCall/StatefulPartitionedCall/StatefulPartitionedCall/predict/MobilenetV2/expanded_conv_9/depthwise/depthwise_bn_offset", "op": "Const", "attr": {"dtype": {"type": "DT_FLOAT"}, "value": {"tensor": {"dtype": "DT_FLOAT", "tensorShape": {"dim": [{"size": "384"}]}}}}}, {"name": "StatefulPartitionedCall/sequential/keras_layer/StatefulPartitionedCall/StatefulPartitionedCall/StatefulPartitionedCall/predict/MobilenetV2/expanded_conv_9/project/Conv2D_weights", "op": "Const", "attr": {"value": {"tensor": {"dtype": "DT_FLOAT", "tensorShape": {"dim": [{"size": "1"}, {"size": "1"}, {"size": "384"}, {"size": "64"}]}}}, "dtype": {"type": "DT_FLOAT"}}}, {"name": "StatefulPartitionedCall/sequential/keras_layer/StatefulPartitionedCall/StatefulPartitionedCall/StatefulPartitionedCall/predict/MobilenetV2/expanded_conv_16/expand/Conv2D_weights", "op": "Const", "attr": {"value": {"tensor": {"dtype": "DT_FLOAT", "tensorShape": {"dim": [{"size": "1"}, {"size": "1"}, {"size": "160"}, {"size": "960"}]}}}, "dtype": {"type": "DT_FLOAT"}}}, {"name": "StatefulPartitionedCall/sequential/keras_layer/StatefulPartitionedCall/StatefulPartitionedCall/StatefulPartitionedCall/predict/MobilenetV2/expanded_conv_9/project/Conv2D_bn_offset", "op": "Const", "attr": {"dtype": {"type": "DT_FLOAT"}, "value": {"tensor": {"dtype": "DT_FLOAT", "tensorShape": {"dim": [{"size": "64"}]}}}}}, {"name": "StatefulPartitionedCall/sequential/keras_layer/StatefulPartitionedCall/StatefulPartitionedCall/StatefulPartitionedCall/predict/MobilenetV2/expanded_conv_10/expand/Conv2D_weights", "op": "Const", "attr": {"value": {"tensor": {"dtype": "DT_FLOAT", "tensorShape": {"dim": [{"size": "1"}, {"size": "1"}, {"size": "64"}, {"size": "384"}]}}}, "dtype": {"type": "DT_FLOAT"}}}, {"name": "StatefulPartitionedCall/sequential/keras_layer/StatefulPartitionedCall/StatefulPartitionedCall/StatefulPartitionedCall/predict/MobilenetV2/expanded_conv_10/expand/Conv2D_bn_offset", "op": "Const", "attr": {"dtype": {"type": "DT_FLOAT"}, "value": {"tensor": {"dtype": "DT_FLOAT", "tensorShape": {"dim": [{"size": "384"}]}}}}}, {"name": "StatefulPartitionedCall/sequential/keras_layer/StatefulPartitionedCall/StatefulPartitionedCall/StatefulPartitionedCall/predict/MobilenetV2/expanded_conv_16/expand/Conv2D_bn_offset", "op": "Const", "attr": {"value": {"tensor": {"dtype": "DT_FLOAT", "tensorShape": {"dim": [{"size": "960"}]}}}, "dtype": {"type": "DT_FLOAT"}}}, {"name": "StatefulPartitionedCall/sequential/keras_layer/StatefulPartitionedCall/StatefulPartitionedCall/StatefulPartitionedCall/predict/MobilenetV2/expanded_conv_10/depthwise/depthwise_weights", "op": "Const", "attr": {"value": {"tensor": {"dtype": "DT_FLOAT", "tensorShape": {"dim": [{"size": "3"}, {"size": "3"}, {"size": "384"}, {"size": "1"}]}}}, "dtype": {"type": "DT_FLOAT"}}}, {"name": "StatefulPartitionedCall/sequential/keras_layer/StatefulPartitionedCall/StatefulPartitionedCall/StatefulPartitionedCall/predict/MobilenetV2/expanded_conv_10/depthwise/depthwise_bn_offset", "op": "Const", "attr": {"value": {"tensor": {"dtype": "DT_FLOAT", "tensorShape": {"dim": [{"size": "384"}]}}}, "dtype": {"type": "DT_FLOAT"}}}, {"name": "StatefulPartitionedCall/sequential/keras_layer/StatefulPartitionedCall/StatefulPartitionedCall/StatefulPartitionedCall/predict/MobilenetV2/expanded_conv_10/project/Conv2D_weights", "op": "Const", "attr": {"value": {"tensor": {"dtype": "DT_FLOAT", "tensorShape": {"dim": [{"size": "1"}, {"size": "1"}, {"size": "384"}, {"size": "96"}]}}}, "dtype": {"type": "DT_FLOAT"}}}, {"name": "StatefulPartitionedCall/sequential/keras_layer/StatefulPartitionedCall/StatefulPartitionedCall/StatefulPartitionedCall/predict/MobilenetV2/expanded_conv_10/project/Conv2D_bn_offset", "op": "Const", "attr": {"value": {"tensor": {"dtype": "DT_FLOAT", "tensorShape": {"dim": [{"size": "96"}]}}}, "dtype": {"type": "DT_FLOAT"}}}, {"name": "StatefulPartitionedCall/sequential/keras_layer/StatefulPartitionedCall/StatefulPartitionedCall/StatefulPartitionedCall/predict/MobilenetV2/expanded_conv_11/expand/Conv2D_weights", "op": "Const", "attr": {"dtype": {"type": "DT_FLOAT"}, "value": {"tensor": {"dtype": "DT_FLOAT", "tensorShape": {"dim": [{"size": "1"}, {"size": "1"}, {"size": "96"}, {"size": "576"}]}}}}}, {"name": "StatefulPartitionedCall/sequential/keras_layer/StatefulPartitionedCall/StatefulPartitionedCall/StatefulPartitionedCall/predict/MobilenetV2/expanded_conv_11/expand/Conv2D_bn_offset", "op": "Const", "attr": {"value": {"tensor": {"dtype": "DT_FLOAT", "tensorShape": {"dim": [{"size": "576"}]}}}, "dtype": {"type": "DT_FLOAT"}}}, {"name": "StatefulPartitionedCall/sequential/keras_layer/StatefulPartitionedCall/StatefulPartitionedCall/StatefulPartitionedCall/predict/MobilenetV2/expanded_conv_16/depthwise/depthwise_weights", "op": "Const", "attr": {"value": {"tensor": {"dtype": "DT_FLOAT", "tensorShape": {"dim": [{"size": "3"}, {"size": "3"}, {"size": "960"}, {"size": "1"}]}}}, "dtype": {"type": "DT_FLOAT"}}}, {"name": "StatefulPartitionedCall/sequential/keras_layer/StatefulPartitionedCall/StatefulPartitionedCall/StatefulPartitionedCall/predict/MobilenetV2/expanded_conv_11/depthwise/depthwise_weights", "op": "Const", "attr": {"dtype": {"type": "DT_FLOAT"}, "value": {"tensor": {"dtype": "DT_FLOAT", "tensorShape": {"dim": [{"size": "3"}, {"size": "3"}, {"size": "576"}, {"size": "1"}]}}}}}, {"name": "StatefulPartitionedCall/sequential/keras_layer/StatefulPartitionedCall/StatefulPartitionedCall/StatefulPartitionedCall/predict/MobilenetV2/expanded_conv_11/depthwise/depthwise_bn_offset", "op": "Const", "attr": {"dtype": {"type": "DT_FLOAT"}, "value": {"tensor": {"dtype": "DT_FLOAT", "tensorShape": {"dim": [{"size": "576"}]}}}}}, {"name": "StatefulPartitionedCall/sequential/keras_layer/StatefulPartitionedCall/StatefulPartitionedCall/StatefulPartitionedCall/predict/MobilenetV2/expanded_conv_11/project/Conv2D_weights", "op": "Const", "attr": {"value": {"tensor": {"dtype": "DT_FLOAT", "tensorShape": {"dim": [{"size": "1"}, {"size": "1"}, {"size": "576"}, {"size": "96"}]}}}, "dtype": {"type": "DT_FLOAT"}}}, {"name": "StatefulPartitionedCall/sequential/keras_layer/StatefulPartitionedCall/StatefulPartitionedCall/StatefulPartitionedCall/predict/MobilenetV2/expanded_conv_11/project/Conv2D_bn_offset", "op": "Const", "attr": {"dtype": {"type": "DT_FLOAT"}, "value": {"tensor": {"dtype": "DT_FLOAT", "tensorShape": {"dim": [{"size": "96"}]}}}}}, {"name": "StatefulPartitionedCall/sequential/keras_layer/StatefulPartitionedCall/StatefulPartitionedCall/StatefulPartitionedCall/predict/MobilenetV2/expanded_conv_12/expand/Conv2D_weights", "op": "Const", "attr": {"value": {"tensor": {"dtype": "DT_FLOAT", "tensorShape": {"dim": [{"size": "1"}, {"size": "1"}, {"size": "96"}, {"size": "576"}]}}}, "dtype": {"type": "DT_FLOAT"}}}, {"name": "StatefulPartitionedCall/sequential/keras_layer/StatefulPartitionedCall/StatefulPartitionedCall/StatefulPartitionedCall/predict/MobilenetV2/expanded_conv_16/depthwise/depthwise_bn_offset", "op": "Const", "attr": {"dtype": {"type": "DT_FLOAT"}, "value": {"tensor": {"dtype": "DT_FLOAT", "tensorShape": {"dim": [{"size": "960"}]}}}}}, {"name": "StatefulPartitionedCall/sequential/keras_layer/StatefulPartitionedCall/StatefulPartitionedCall/StatefulPartitionedCall/predict/MobilenetV2/expanded_conv_12/expand/Conv2D_bn_offset", "op": "Const", "attr": {"dtype": {"type": "DT_FLOAT"}, "value": {"tensor": {"dtype": "DT_FLOAT", "tensorShape": {"dim": [{"size": "576"}]}}}}}, {"name": "StatefulPartitionedCall/sequential/keras_layer/StatefulPartitionedCall/StatefulPartitionedCall/StatefulPartitionedCall/predict/MobilenetV2/expanded_conv_12/depthwise/depthwise_weights", "op": "Const", "attr": {"value": {"tensor": {"dtype": "DT_FLOAT", "tensorShape": {"dim": [{"size": "3"}, {"size": "3"}, {"size": "576"}, {"size": "1"}]}}}, "dtype": {"type": "DT_FLOAT"}}}, {"name": "StatefulPartitionedCall/sequential/keras_layer/StatefulPartitionedCall/StatefulPartitionedCall/StatefulPartitionedCall/predict/MobilenetV2/expanded_conv_12/depthwise/depthwise_bn_offset", "op": "Const", "attr": {"dtype": {"type": "DT_FLOAT"}, "value": {"tensor": {"dtype": "DT_FLOAT", "tensorShape": {"dim": [{"size": "576"}]}}}}}, {"name": "StatefulPartitionedCall/sequential/keras_layer/StatefulPartitionedCall/StatefulPartitionedCall/StatefulPartitionedCall/predict/MobilenetV2/expanded_conv_12/project/Conv2D_weights", "op": "Const", "attr": {"value": {"tensor": {"dtype": "DT_FLOAT", "tensorShape": {"dim": [{"size": "1"}, {"size": "1"}, {"size": "576"}, {"size": "96"}]}}}, "dtype": {"type": "DT_FLOAT"}}}, {"name": "StatefulPartitionedCall/sequential/keras_layer/StatefulPartitionedCall/StatefulPartitionedCall/StatefulPartitionedCall/predict/MobilenetV2/expanded_conv_12/project/Conv2D_bn_offset", "op": "Const", "attr": {"dtype": {"type": "DT_FLOAT"}, "value": {"tensor": {"dtype": "DT_FLOAT", "tensorShape": {"dim": [{"size": "96"}]}}}}}, {"name": "StatefulPartitionedCall/sequential/keras_layer/StatefulPartitionedCall/StatefulPartitionedCall/StatefulPartitionedCall/predict/MobilenetV2/expanded_conv_13/expand/Conv2D_weights", "op": "Const", "attr": {"dtype": {"type": "DT_FLOAT"}, "value": {"tensor": {"dtype": "DT_FLOAT", "tensorShape": {"dim": [{"size": "1"}, {"size": "1"}, {"size": "96"}, {"size": "576"}]}}}}}, {"name": "StatefulPartitionedCall/sequential/keras_layer/StatefulPartitionedCall/StatefulPartitionedCall/StatefulPartitionedCall/predict/MobilenetV2/expanded_conv_16/project/Conv2D_weights", "op": "Const", "attr": {"value": {"tensor": {"dtype": "DT_FLOAT", "tensorShape": {"dim": [{"size": "1"}, {"size": "1"}, {"size": "960"}, {"size": "320"}]}}}, "dtype": {"type": "DT_FLOAT"}}}, {"name": "StatefulPartitionedCall/sequential/keras_layer/StatefulPartitionedCall/StatefulPartitionedCall/StatefulPartitionedCall/predict/MobilenetV2/expanded_conv_13/expand/Conv2D_bn_offset", "op": "Const", "attr": {"value": {"tensor": {"dtype": "DT_FLOAT", "tensorShape": {"dim": [{"size": "576"}]}}}, "dtype": {"type": "DT_FLOAT"}}}, {"name": "StatefulPartitionedCall/sequential/keras_layer/StatefulPartitionedCall/StatefulPartitionedCall/StatefulPartitionedCall/predict/MobilenetV2/expanded_conv_13/depthwise/depthwise_weights", "op": "Const", "attr": {"value": {"tensor": {"dtype": "DT_FLOAT", "tensorShape": {"dim": [{"size": "3"}, {"size": "3"}, {"size": "576"}, {"size": "1"}]}}}, "dtype": {"type": "DT_FLOAT"}}}, {"name": "StatefulPartitionedCall/sequential/keras_layer/StatefulPartitionedCall/StatefulPartitionedCall/StatefulPartitionedCall/predict/MobilenetV2/expanded_conv_13/depthwise/depthwise_bn_offset", "op": "Const", "attr": {"dtype": {"type": "DT_FLOAT"}, "value": {"tensor": {"dtype": "DT_FLOAT", "tensorShape": {"dim": [{"size": "576"}]}}}}}, {"name": "StatefulPartitionedCall/sequential/keras_layer/StatefulPartitionedCall/StatefulPartitionedCall/StatefulPartitionedCall/predict/MobilenetV2/expanded_conv_13/project/Conv2D_weights", "op": "Const", "attr": {"dtype": {"type": "DT_FLOAT"}, "value": {"tensor": {"dtype": "DT_FLOAT", "tensorShape": {"dim": [{"size": "1"}, {"size": "1"}, {"size": "576"}, {"size": "160"}]}}}}}, {"name": "StatefulPartitionedCall/sequential/keras_layer/StatefulPartitionedCall/StatefulPartitionedCall/StatefulPartitionedCall/predict/MobilenetV2/expanded_conv_16/project/Conv2D_bn_offset", "op": "Const", "attr": {"dtype": {"type": "DT_FLOAT"}, "value": {"tensor": {"dtype": "DT_FLOAT", "tensorShape": {"dim": [{"size": "320"}]}}}}}, {"name": "StatefulPartitionedCall/sequential/keras_layer/StatefulPartitionedCall/StatefulPartitionedCall/StatefulPartitionedCall/predict/MobilenetV2/expanded_conv_13/project/Conv2D_bn_offset", "op": "Const", "attr": {"value": {"tensor": {"dtype": "DT_FLOAT", "tensorShape": {"dim": [{"size": "160"}]}}}, "dtype": {"type": "DT_FLOAT"}}}, {"name": "StatefulPartitionedCall/sequential/keras_layer/StatefulPartitionedCall/StatefulPartitionedCall/StatefulPartitionedCall/predict/MobilenetV2/expanded_conv_14/expand/Conv2D_weights", "op": "Const", "attr": {"value": {"tensor": {"dtype": "DT_FLOAT", "tensorShape": {"dim": [{"size": "1"}, {"size": "1"}, {"size": "160"}, {"size": "960"}]}}}, "dtype": {"type": "DT_FLOAT"}}}, {"name": "StatefulPartitionedCall/sequential/dense/MatMul/ReadVariableOp", "op": "Const", "input": ["^input_1"], "attr": {"value": {"tensor": {"dtype": "DT_FLOAT", "tensorShape": {"dim": [{"size": "1280"}, {"size": "3"}]}}}, "dtype": {"type": "DT_FLOAT"}}}, {"name": "StatefulPartitionedCall/sequential/dense/BiasAdd/ReadVariableOp", "op": "Const", "input": ["^input_1"], "attr": {"dtype": {"type": "DT_FLOAT"}, "value": {"tensor": {"dtype": "DT_FLOAT", "tensorShape": {"dim": [{"size": "3"}]}}}}}, {"name": "StatefulPartitionedCall/sequential/keras_layer/StatefulPartitionedCall/StatefulPartitionedCall/StatefulPartitionedCall/predict/hub_input/Mul/y", "op": "Const", "input": ["^input_1"], "attr": {"dtype": {"type": "DT_FLOAT"}, "value": {"tensor": {"dtype": "DT_FLOAT", "tensorShape": {}}}}}, {"name": "StatefulPartitionedCall/sequential/keras_layer/StatefulPartitionedCall/StatefulPartitionedCall/StatefulPartitionedCall/predict/hub_input/Sub/y", "op": "Const", "input": ["^input_1"], "attr": {"value": {"tensor": {"dtype": "DT_FLOAT", "tensorShape": {}}}, "dtype": {"type": "DT_FLOAT"}}}, {"name": "StatefulPartitionedCall/sequential/keras_layer/StatefulPartitionedCall/StatefulPartitionedCall/StatefulPartitionedCall/predict/hub_input/Mul", "op": "Mul", "input": ["StatefulPartitionedCall/sequential/keras_layer/StatefulPartitionedCall/StatefulPartitionedCall/StatefulPartitionedCall/predict/hub_input/Mul/y", "input_1"], "attr": {"T": {"type": "DT_FLOAT"}}}, {"name": "StatefulPartitionedCall/sequential/keras_layer/StatefulPartitionedCall/StatefulPartitionedCall/StatefulPartitionedCall/predict/hub_input/Sub", "op": "Sub", "input": ["StatefulPartitionedCall/sequential/keras_layer/StatefulPartitionedCall/StatefulPartitionedCall/StatefulPartitionedCall/predict/hub_input/Mul", "StatefulPartitionedCall/sequential/keras_layer/StatefulPartitionedCall/StatefulPartitionedCall/StatefulPartitionedCall/predict/hub_input/Sub/y"], "attr": {"T": {"type": "DT_FLOAT"}}}, {"name": "StatefulPartitionedCall/sequential/keras_layer/StatefulPartitionedCall/StatefulPartitionedCall/StatefulPartitionedCall/predict/MobilenetV2/Conv/Relu6", "op": "_FusedConv2D", "input": ["StatefulPartitionedCall/sequential/keras_layer/StatefulPartitionedCall/StatefulPartitionedCall/StatefulPartitionedCall/predict/hub_input/Sub", "StatefulPartitionedCall/sequential/keras_layer/StatefulPartitionedCall/StatefulPartitionedCall/StatefulPartitionedCall/predict/MobilenetV2/Conv/Conv2D_weights", "StatefulPartitionedCall/sequential/keras_layer/StatefulPartitionedCall/StatefulPartitionedCall/StatefulPartitionedCall/predict/MobilenetV2/Conv/Conv2D_bn_offset"], "device": "/device:CPU:0", "attr": {"epsilon": {"f": 0.0}, "dilations": {"list": {"i": ["1", "1", "1", "1"]}}, "strides": {"list": {"i": ["1", "2", "2", "1"]}}, "explicit_paddings": {"list": {}}, "use_cudnn_on_gpu": {"b": true}, "num_args": {"i": "1"}, "T": {"type": "DT_FLOAT"}, "data_format": {"s": "TkhXQw=="}, "padding": {"s": "U0FNRQ=="}, "fused_ops": {"list": {"s": ["Qmlhc0FkZA==", "UmVsdTY="]}}}}, {"name": "StatefulPartitionedCall/sequential/keras_layer/StatefulPartitionedCall/StatefulPartitionedCall/StatefulPartitionedCall/predict/MobilenetV2/expanded_conv/depthwise/depthwise", "op": "FusedDepthwiseConv2dNative", "input": ["StatefulPartitionedCall/sequential/keras_layer/StatefulPartitionedCall/StatefulPartitionedCall/StatefulPartitionedCall/predict/MobilenetV2/Conv/Relu6", "StatefulPartitionedCall/sequential/keras_layer/StatefulPartitionedCall/StatefulPartitionedCall/StatefulPartitionedCall/predict/MobilenetV2/expanded_conv/depthwise/depthwise_weights", "StatefulPartitionedCall/sequential/keras_layer/StatefulPartitionedCall/StatefulPartitionedCall/StatefulPartitionedCall/predict/MobilenetV2/expanded_conv/depthwise/depthwise_bn_offset"], "attr": {"T": {"type": "DT_FLOAT"}, "data_format": {"s": "TkhXQw=="}, "num_args": {"i": "1"}, "fused_ops": {"list": {"s": ["Qmlhc0FkZA==", "UmVsdTY="]}}, "dilations": {"list": {"i": ["1", "1", "1", "1"]}}, "padding": {"s": "U0FNRQ=="}, "strides": {"list": {"i": ["1", "1", "1", "1"]}}}}, {"name": "StatefulPartitionedCall/sequential/keras_layer/StatefulPartitionedCall/StatefulPartitionedCall/StatefulPartitionedCall/predict/MobilenetV2/expanded_conv/project/BatchNorm/FusedBatchNorm", "op": "_FusedConv2D", "input": ["StatefulPartitionedCall/sequential/keras_layer/StatefulPartitionedCall/StatefulPartitionedCall/StatefulPartitionedCall/predict/MobilenetV2/expanded_conv/depthwise/depthwise", "StatefulPartitionedCall/sequential/keras_layer/StatefulPartitionedCall/StatefulPartitionedCall/StatefulPartitionedCall/predict/MobilenetV2/expanded_conv/project/Conv2D_weights", "StatefulPartitionedCall/sequential/keras_layer/StatefulPartitionedCall/StatefulPartitionedCall/StatefulPartitionedCall/predict/MobilenetV2/expanded_conv/project/Conv2D_bn_offset"], "device": "/device:CPU:0", "attr": {"num_args": {"i": "1"}, "fused_ops": {"list": {"s": ["Qmlhc0FkZA=="]}}, "padding": {"s": "U0FNRQ=="}, "epsilon": {"f": 0.0}, "use_cudnn_on_gpu": {"b": true}, "data_format": {"s": "TkhXQw=="}, "dilations": {"list": {"i": ["1", "1", "1", "1"]}}, "strides": {"list": {"i": ["1", "1", "1", "1"]}}, "explicit_paddings": {"list": {}}, "T": {"type": "DT_FLOAT"}}}, {"name": "StatefulPartitionedCall/sequential/keras_layer/StatefulPartitionedCall/StatefulPartitionedCall/StatefulPartitionedCall/predict/MobilenetV2/expanded_conv_1/expand/Relu6", "op": "_FusedConv2D", "input": ["StatefulPartitionedCall/sequential/keras_layer/StatefulPartitionedCall/StatefulPartitionedCall/StatefulPartitionedCall/predict/MobilenetV2/expanded_conv/project/BatchNorm/FusedBatchNorm", "StatefulPartitionedCall/sequential/keras_layer/StatefulPartitionedCall/StatefulPartitionedCall/StatefulPartitionedCall/predict/MobilenetV2/expanded_conv_1/expand/Conv2D_weights", "StatefulPartitionedCall/sequential/keras_layer/StatefulPartitionedCall/StatefulPartitionedCall/StatefulPartitionedCall/predict/MobilenetV2/expanded_conv_1/expand/Conv2D_bn_offset"], "device": "/device:CPU:0", "attr": {"epsilon": {"f": 0.0}, "dilations": {"list": {"i": ["1", "1", "1", "1"]}}, "use_cudnn_on_gpu": {"b": true}, "T": {"type": "DT_FLOAT"}, "fused_ops": {"list": {"s": ["Qmlhc0FkZA==", "UmVsdTY="]}}, "data_format": {"s": "TkhXQw=="}, "strides": {"list": {"i": ["1", "1", "1", "1"]}}, "num_args": {"i": "1"}, "explicit_paddings": {"list": {}}, "padding": {"s": "U0FNRQ=="}}}, {"name": "StatefulPartitionedCall/sequential/keras_layer/StatefulPartitionedCall/StatefulPartitionedCall/StatefulPartitionedCall/predict/MobilenetV2/expanded_conv_1/depthwise/depthwise", "op": "FusedDepthwiseConv2dNative", "input": ["StatefulPartitionedCall/sequential/keras_layer/StatefulPartitionedCall/StatefulPartitionedCall/StatefulPartitionedCall/predict/MobilenetV2/expanded_conv_1/expand/Relu6", "StatefulPartitionedCall/sequential/keras_layer/StatefulPartitionedCall/StatefulPartitionedCall/StatefulPartitionedCall/predict/MobilenetV2/expanded_conv_1/depthwise/depthwise_weights", "StatefulPartitionedCall/sequential/keras_layer/StatefulPartitionedCall/StatefulPartitionedCall/StatefulPartitionedCall/predict/MobilenetV2/expanded_conv_1/depthwise/depthwise_bn_offset"], "attr": {"T": {"type": "DT_FLOAT"}, "fused_ops": {"list": {"s": ["Qmlhc0FkZA==", "UmVsdTY="]}}, "dilations": {"list": {"i": ["1", "1", "1", "1"]}}, "padding": {"s": "U0FNRQ=="}, "strides": {"list": {"i": ["1", "2", "2", "1"]}}, "data_format": {"s": "TkhXQw=="}, "num_args": {"i": "1"}}}, {"name": "StatefulPartitionedCall/sequential/keras_layer/StatefulPartitionedCall/StatefulPartitionedCall/StatefulPartitionedCall/predict/MobilenetV2/expanded_conv_1/project/BatchNorm/FusedBatchNorm", "op": "_FusedConv2D", "input": ["StatefulPartitionedCall/sequential/keras_layer/StatefulPartitionedCall/StatefulPartitionedCall/StatefulPartitionedCall/predict/MobilenetV2/expanded_conv_1/depthwise/depthwise", "StatefulPartitionedCall/sequential/keras_layer/StatefulPartitionedCall/StatefulPartitionedCall/StatefulPartitionedCall/predict/MobilenetV2/expanded_conv_1/project/Conv2D_weights", "StatefulPartitionedCall/sequential/keras_layer/StatefulPartitionedCall/StatefulPartitionedCall/StatefulPartitionedCall/predict/MobilenetV2/expanded_conv_1/project/Conv2D_bn_offset"], "device": "/device:CPU:0", "attr": {"data_format": {"s": "TkhXQw=="}, "fused_ops": {"list": {"s": ["Qmlhc0FkZA=="]}}, "explicit_paddings": {"list": {}}, "strides": {"list": {"i": ["1", "1", "1", "1"]}}, "num_args": {"i": "1"}, "padding": {"s": "U0FNRQ=="}, "use_cudnn_on_gpu": {"b": true}, "dilations": {"list": {"i": ["1", "1", "1", "1"]}}, "epsilon": {"f": 0.0}, "T": {"type": "DT_FLOAT"}}}, {"name": "StatefulPartitionedCall/sequential/keras_layer/StatefulPartitionedCall/StatefulPartitionedCall/StatefulPartitionedCall/predict/MobilenetV2/expanded_conv_2/expand/Relu6", "op": "_FusedConv2D", "input": ["StatefulPartitionedCall/sequential/keras_layer/StatefulPartitionedCall/StatefulPartitionedCall/StatefulPartitionedCall/predict/MobilenetV2/expanded_conv_1/project/BatchNorm/FusedBatchNorm", "StatefulPartitionedCall/sequential/keras_layer/StatefulPartitionedCall/StatefulPartitionedCall/StatefulPartitionedCall/predict/MobilenetV2/expanded_conv_2/expand/Conv2D_weights", "StatefulPartitionedCall/sequential/keras_layer/StatefulPartitionedCall/StatefulPartitionedCall/StatefulPartitionedCall/predict/MobilenetV2/expanded_conv_2/expand/Conv2D_bn_offset"], "device": "/device:CPU:0", "attr": {"fused_ops": {"list": {"s": ["Qmlhc0FkZA==", "UmVsdTY="]}}, "explicit_paddings": {"list": {}}, "use_cudnn_on_gpu": {"b": true}, "T": {"type": "DT_FLOAT"}, "num_args": {"i": "1"}, "dilations": {"list": {"i": ["1", "1", "1", "1"]}}, "strides": {"list": {"i": ["1", "1", "1", "1"]}}, "padding": {"s": "U0FNRQ=="}, "epsilon": {"f": 0.0}, "data_format": {"s": "TkhXQw=="}}}, {"name": "StatefulPartitionedCall/sequential/keras_layer/StatefulPartitionedCall/StatefulPartitionedCall/StatefulPartitionedCall/predict/MobilenetV2/expanded_conv_2/depthwise/depthwise", "op": "FusedDepthwiseConv2dNative", "input": ["StatefulPartitionedCall/sequential/keras_layer/StatefulPartitionedCall/StatefulPartitionedCall/StatefulPartitionedCall/predict/MobilenetV2/expanded_conv_2/expand/Relu6", "StatefulPartitionedCall/sequential/keras_layer/StatefulPartitionedCall/StatefulPartitionedCall/StatefulPartitionedCall/predict/MobilenetV2/expanded_conv_2/depthwise/depthwise_weights", "StatefulPartitionedCall/sequential/keras_layer/StatefulPartitionedCall/StatefulPartitionedCall/StatefulPartitionedCall/predict/MobilenetV2/expanded_conv_2/depthwise/depthwise_bn_offset"], "attr": {"num_args": {"i": "1"}, "strides": {"list": {"i": ["1", "1", "1", "1"]}}, "data_format": {"s": "TkhXQw=="}, "dilations": {"list": {"i": ["1", "1", "1", "1"]}}, "T": {"type": "DT_FLOAT"}, "padding": {"s": "U0FNRQ=="}, "fused_ops": {"list": {"s": ["Qmlhc0FkZA==", "UmVsdTY="]}}}}, {"name": "StatefulPartitionedCall/sequential/keras_layer/StatefulPartitionedCall/StatefulPartitionedCall/StatefulPartitionedCall/predict/MobilenetV2/expanded_conv_2/project/BatchNorm/FusedBatchNorm", "op": "_FusedConv2D", "input": ["StatefulPartitionedCall/sequential/keras_layer/StatefulPartitionedCall/StatefulPartitionedCall/StatefulPartitionedCall/predict/MobilenetV2/expanded_conv_2/depthwise/depthwise", "StatefulPartitionedCall/sequential/keras_layer/StatefulPartitionedCall/StatefulPartitionedCall/StatefulPartitionedCall/predict/MobilenetV2/expanded_conv_2/project/Conv2D_weights", "StatefulPartitionedCall/sequential/keras_layer/StatefulPartitionedCall/StatefulPartitionedCall/StatefulPartitionedCall/predict/MobilenetV2/expanded_conv_2/project/Conv2D_bn_offset"], "device": "/device:CPU:0", "attr": {"T": {"type": "DT_FLOAT"}, "fused_ops": {"list": {"s": ["Qmlhc0FkZA=="]}}, "padding": {"s": "U0FNRQ=="}, "explicit_paddings": {"list": {}}, "dilations": {"list": {"i": ["1", "1", "1", "1"]}}, "num_args": {"i": "1"}, "use_cudnn_on_gpu": {"b": true}, "epsilon": {"f": 0.0}, "data_format": {"s": "TkhXQw=="}, "strides": {"list": {"i": ["1", "1", "1", "1"]}}}}, {"name": "StatefulPartitionedCall/sequential/keras_layer/StatefulPartitionedCall/StatefulPartitionedCall/StatefulPartitionedCall/predict/MobilenetV2/expanded_conv_2/add", "op": "Add", "input": ["StatefulPartitionedCall/sequential/keras_layer/StatefulPartitionedCall/StatefulPartitionedCall/StatefulPartitionedCall/predict/MobilenetV2/expanded_conv_1/project/BatchNorm/FusedBatchNorm", "StatefulPartitionedCall/sequential/keras_layer/StatefulPartitionedCall/StatefulPartitionedCall/StatefulPartitionedCall/predict/MobilenetV2/expanded_conv_2/project/BatchNorm/FusedBatchNorm"], "attr": {"T": {"type": "DT_FLOAT"}}}, {"name": "StatefulPartitionedCall/sequential/keras_layer/StatefulPartitionedCall/StatefulPartitionedCall/StatefulPartitionedCall/predict/MobilenetV2/expanded_conv_3/expand/Relu6", "op": "_FusedConv2D", "input": ["StatefulPartitionedCall/sequential/keras_layer/StatefulPartitionedCall/StatefulPartitionedCall/StatefulPartitionedCall/predict/MobilenetV2/expanded_conv_2/add", "StatefulPartitionedCall/sequential/keras_layer/StatefulPartitionedCall/StatefulPartitionedCall/StatefulPartitionedCall/predict/MobilenetV2/expanded_conv_3/expand/Conv2D_weights", "StatefulPartitionedCall/sequential/keras_layer/StatefulPartitionedCall/StatefulPartitionedCall/StatefulPartitionedCall/predict/MobilenetV2/expanded_conv_3/expand/Conv2D_bn_offset"], "device": "/device:CPU:0", "attr": {"use_cudnn_on_gpu": {"b": true}, "epsilon": {"f": 0.0}, "data_format": {"s": "TkhXQw=="}, "strides": {"list": {"i": ["1", "1", "1", "1"]}}, "fused_ops": {"list": {"s": ["Qmlhc0FkZA==", "UmVsdTY="]}}, "padding": {"s": "U0FNRQ=="}, "dilations": {"list": {"i": ["1", "1", "1", "1"]}}, "num_args": {"i": "1"}, "T": {"type": "DT_FLOAT"}, "explicit_paddings": {"list": {}}}}, {"name": "StatefulPartitionedCall/sequential/keras_layer/StatefulPartitionedCall/StatefulPartitionedCall/StatefulPartitionedCall/predict/MobilenetV2/expanded_conv_3/depthwise/depthwise", "op": "FusedDepthwiseConv2dNative", "input": ["StatefulPartitionedCall/sequential/keras_layer/StatefulPartitionedCall/StatefulPartitionedCall/StatefulPartitionedCall/predict/MobilenetV2/expanded_conv_3/expand/Relu6", "StatefulPartitionedCall/sequential/keras_layer/StatefulPartitionedCall/StatefulPartitionedCall/StatefulPartitionedCall/predict/MobilenetV2/expanded_conv_3/depthwise/depthwise_weights", "StatefulPartitionedCall/sequential/keras_layer/StatefulPartitionedCall/StatefulPartitionedCall/StatefulPartitionedCall/predict/MobilenetV2/expanded_conv_3/depthwise/depthwise_bn_offset"], "attr": {"num_args": {"i": "1"}, "fused_ops": {"list": {"s": ["Qmlhc0FkZA==", "UmVsdTY="]}}, "dilations": {"list": {"i": ["1", "1", "1", "1"]}}, "padding": {"s": "U0FNRQ=="}, "data_format": {"s": "TkhXQw=="}, "T": {"type": "DT_FLOAT"}, "strides": {"list": {"i": ["1", "2", "2", "1"]}}}}, {"name": "StatefulPartitionedCall/sequential/keras_layer/StatefulPartitionedCall/StatefulPartitionedCall/StatefulPartitionedCall/predict/MobilenetV2/expanded_conv_3/project/BatchNorm/FusedBatchNorm", "op": "_FusedConv2D", "input": ["StatefulPartitionedCall/sequential/keras_layer/StatefulPartitionedCall/StatefulPartitionedCall/StatefulPartitionedCall/predict/MobilenetV2/expanded_conv_3/depthwise/depthwise", "StatefulPartitionedCall/sequential/keras_layer/StatefulPartitionedCall/StatefulPartitionedCall/StatefulPartitionedCall/predict/MobilenetV2/expanded_conv_3/project/Conv2D_weights", "StatefulPartitionedCall/sequential/keras_layer/StatefulPartitionedCall/StatefulPartitionedCall/StatefulPartitionedCall/predict/MobilenetV2/expanded_conv_3/project/Conv2D_bn_offset"], "device": "/device:CPU:0", "attr": {"num_args": {"i": "1"}, "padding": {"s": "U0FNRQ=="}, "use_cudnn_on_gpu": {"b": true}, "strides": {"list": {"i": ["1", "1", "1", "1"]}}, "epsilon": {"f": 0.0}, "T": {"type": "DT_FLOAT"}, "data_format": {"s": "TkhXQw=="}, "dilations": {"list": {"i": ["1", "1", "1", "1"]}}, "explicit_paddings": {"list": {}}, "fused_ops": {"list": {"s": ["Qmlhc0FkZA=="]}}}}, {"name": "StatefulPartitionedCall/sequential/keras_layer/StatefulPartitionedCall/StatefulPartitionedCall/StatefulPartitionedCall/predict/MobilenetV2/expanded_conv_4/expand/Relu6", "op": "_FusedConv2D", "input": ["StatefulPartitionedCall/sequential/keras_layer/StatefulPartitionedCall/StatefulPartitionedCall/StatefulPartitionedCall/predict/MobilenetV2/expanded_conv_3/project/BatchNorm/FusedBatchNorm", "StatefulPartitionedCall/sequential/keras_layer/StatefulPartitionedCall/StatefulPartitionedCall/StatefulPartitionedCall/predict/MobilenetV2/expanded_conv_4/expand/Conv2D_weights", "StatefulPartitionedCall/sequential/keras_layer/StatefulPartitionedCall/StatefulPartitionedCall/StatefulPartitionedCall/predict/MobilenetV2/expanded_conv_4/expand/Conv2D_bn_offset"], "device": "/device:CPU:0", "attr": {"epsilon": {"f": 0.0}, "num_args": {"i": "1"}, "padding": {"s": "U0FNRQ=="}, "use_cudnn_on_gpu": {"b": true}, "data_format": {"s": "TkhXQw=="}, "T": {"type": "DT_FLOAT"}, "strides": {"list": {"i": ["1", "1", "1", "1"]}}, "fused_ops": {"list": {"s": ["Qmlhc0FkZA==", "UmVsdTY="]}}, "dilations": {"list": {"i": ["1", "1", "1", "1"]}}, "explicit_paddings": {"list": {}}}}, {"name": "StatefulPartitionedCall/sequential/keras_layer/StatefulPartitionedCall/StatefulPartitionedCall/StatefulPartitionedCall/predict/MobilenetV2/expanded_conv_4/depthwise/depthwise", "op": "FusedDepthwiseConv2dNative", "input": ["StatefulPartitionedCall/sequential/keras_layer/StatefulPartitionedCall/StatefulPartitionedCall/StatefulPartitionedCall/predict/MobilenetV2/expanded_conv_4/expand/Relu6", "StatefulPartitionedCall/sequential/keras_layer/StatefulPartitionedCall/StatefulPartitionedCall/StatefulPartitionedCall/predict/MobilenetV2/expanded_conv_4/depthwise/depthwise_weights", "StatefulPartitionedCall/sequential/keras_layer/StatefulPartitionedCall/StatefulPartitionedCall/StatefulPartitionedCall/predict/MobilenetV2/expanded_conv_4/depthwise/depthwise_bn_offset"], "attr": {"dilations": {"list": {"i": ["1", "1", "1", "1"]}}, "T": {"type": "DT_FLOAT"}, "padding": {"s": "U0FNRQ=="}, "data_format": {"s": "TkhXQw=="}, "strides": {"list": {"i": ["1", "1", "1", "1"]}}, "num_args": {"i": "1"}, "fused_ops": {"list": {"s": ["Qmlhc0FkZA==", "UmVsdTY="]}}}}, {"name": "StatefulPartitionedCall/sequential/keras_layer/StatefulPartitionedCall/StatefulPartitionedCall/StatefulPartitionedCall/predict/MobilenetV2/expanded_conv_4/project/BatchNorm/FusedBatchNorm", "op": "_FusedConv2D", "input": ["StatefulPartitionedCall/sequential/keras_layer/StatefulPartitionedCall/StatefulPartitionedCall/StatefulPartitionedCall/predict/MobilenetV2/expanded_conv_4/depthwise/depthwise", "StatefulPartitionedCall/sequential/keras_layer/StatefulPartitionedCall/StatefulPartitionedCall/StatefulPartitionedCall/predict/MobilenetV2/expanded_conv_4/project/Conv2D_weights", "StatefulPartitionedCall/sequential/keras_layer/StatefulPartitionedCall/StatefulPartitionedCall/StatefulPartitionedCall/predict/MobilenetV2/expanded_conv_4/project/Conv2D_bn_offset"], "device": "/device:CPU:0", "attr": {"use_cudnn_on_gpu": {"b": true}, "dilations": {"list": {"i": ["1", "1", "1", "1"]}}, "num_args": {"i": "1"}, "strides": {"list": {"i": ["1", "1", "1", "1"]}}, "data_format": {"s": "TkhXQw=="}, "padding": {"s": "U0FNRQ=="}, "epsilon": {"f": 0.0}, "T": {"type": "DT_FLOAT"}, "explicit_paddings": {"list": {}}, "fused_ops": {"list": {"s": ["Qmlhc0FkZA=="]}}}}, {"name": "StatefulPartitionedCall/sequential/keras_layer/StatefulPartitionedCall/StatefulPartitionedCall/StatefulPartitionedCall/predict/MobilenetV2/expanded_conv_4/add", "op": "Add", "input": ["StatefulPartitionedCall/sequential/keras_layer/StatefulPartitionedCall/StatefulPartitionedCall/StatefulPartitionedCall/predict/MobilenetV2/expanded_conv_3/project/BatchNorm/FusedBatchNorm", "StatefulPartitionedCall/sequential/keras_layer/StatefulPartitionedCall/StatefulPartitionedCall/StatefulPartitionedCall/predict/MobilenetV2/expanded_conv_4/project/BatchNorm/FusedBatchNorm"], "attr": {"T": {"type": "DT_FLOAT"}}}, {"name": "StatefulPartitionedCall/sequential/keras_layer/StatefulPartitionedCall/StatefulPartitionedCall/StatefulPartitionedCall/predict/MobilenetV2/expanded_conv_5/expand/Relu6", "op": "_FusedConv2D", "input": ["StatefulPartitionedCall/sequential/keras_layer/StatefulPartitionedCall/StatefulPartitionedCall/StatefulPartitionedCall/predict/MobilenetV2/expanded_conv_4/add", "StatefulPartitionedCall/sequential/keras_layer/StatefulPartitionedCall/StatefulPartitionedCall/StatefulPartitionedCall/predict/MobilenetV2/expanded_conv_5/expand/Conv2D_weights", "StatefulPartitionedCall/sequential/keras_layer/StatefulPartitionedCall/StatefulPartitionedCall/StatefulPartitionedCall/predict/MobilenetV2/expanded_conv_5/expand/Conv2D_bn_offset"], "device": "/device:CPU:0", "attr": {"data_format": {"s": "TkhXQw=="}, "explicit_paddings": {"list": {}}, "padding": {"s": "U0FNRQ=="}, "use_cudnn_on_gpu": {"b": true}, "T": {"type": "DT_FLOAT"}, "dilations": {"list": {"i": ["1", "1", "1", "1"]}}, "strides": {"list": {"i": ["1", "1", "1", "1"]}}, "fused_ops": {"list": {"s": ["Qmlhc0FkZA==", "UmVsdTY="]}}, "num_args": {"i": "1"}, "epsilon": {"f": 0.0}}}, {"name": "StatefulPartitionedCall/sequential/keras_layer/StatefulPartitionedCall/StatefulPartitionedCall/StatefulPartitionedCall/predict/MobilenetV2/expanded_conv_5/depthwise/depthwise", "op": "FusedDepthwiseConv2dNative", "input": ["StatefulPartitionedCall/sequential/keras_layer/StatefulPartitionedCall/StatefulPartitionedCall/StatefulPartitionedCall/predict/MobilenetV2/expanded_conv_5/expand/Relu6", "StatefulPartitionedCall/sequential/keras_layer/StatefulPartitionedCall/StatefulPartitionedCall/StatefulPartitionedCall/predict/MobilenetV2/expanded_conv_5/depthwise/depthwise_weights", "StatefulPartitionedCall/sequential/keras_layer/StatefulPartitionedCall/StatefulPartitionedCall/StatefulPartitionedCall/predict/MobilenetV2/expanded_conv_5/depthwise/depthwise_bn_offset"], "attr": {"padding": {"s": "U0FNRQ=="}, "T": {"type": "DT_FLOAT"}, "fused_ops": {"list": {"s": ["Qmlhc0FkZA==", "UmVsdTY="]}}, "num_args": {"i": "1"}, "data_format": {"s": "TkhXQw=="}, "strides": {"list": {"i": ["1", "1", "1", "1"]}}, "dilations": {"list": {"i": ["1", "1", "1", "1"]}}}}, {"name": "StatefulPartitionedCall/sequential/keras_layer/StatefulPartitionedCall/StatefulPartitionedCall/StatefulPartitionedCall/predict/MobilenetV2/expanded_conv_5/project/BatchNorm/FusedBatchNorm", "op": "_FusedConv2D", "input": ["StatefulPartitionedCall/sequential/keras_layer/StatefulPartitionedCall/StatefulPartitionedCall/StatefulPartitionedCall/predict/MobilenetV2/expanded_conv_5/depthwise/depthwise", "StatefulPartitionedCall/sequential/keras_layer/StatefulPartitionedCall/StatefulPartitionedCall/StatefulPartitionedCall/predict/MobilenetV2/expanded_conv_5/project/Conv2D_weights", "StatefulPartitionedCall/sequential/keras_layer/StatefulPartitionedCall/StatefulPartitionedCall/StatefulPartitionedCall/predict/MobilenetV2/expanded_conv_5/project/Conv2D_bn_offset"], "device": "/device:CPU:0", "attr": {"num_args": {"i": "1"}, "fused_ops": {"list": {"s": ["Qmlhc0FkZA=="]}}, "padding": {"s": "U0FNRQ=="}, "data_format": {"s": "TkhXQw=="}, "use_cudnn_on_gpu": {"b": true}, "explicit_paddings": {"list": {}}, "T": {"type": "DT_FLOAT"}, "strides": {"list": {"i": ["1", "1", "1", "1"]}}, "epsilon": {"f": 0.0}, "dilations": {"list": {"i": ["1", "1", "1", "1"]}}}}, {"name": "StatefulPartitionedCall/sequential/keras_layer/StatefulPartitionedCall/StatefulPartitionedCall/StatefulPartitionedCall/predict/MobilenetV2/expanded_conv_5/add", "op": "Add", "input": ["StatefulPartitionedCall/sequential/keras_layer/StatefulPartitionedCall/StatefulPartitionedCall/StatefulPartitionedCall/predict/MobilenetV2/expanded_conv_4/add", "StatefulPartitionedCall/sequential/keras_layer/StatefulPartitionedCall/StatefulPartitionedCall/StatefulPartitionedCall/predict/MobilenetV2/expanded_conv_5/project/BatchNorm/FusedBatchNorm"], "attr": {"T": {"type": "DT_FLOAT"}}}, {"name": "StatefulPartitionedCall/sequential/keras_layer/StatefulPartitionedCall/StatefulPartitionedCall/StatefulPartitionedCall/predict/MobilenetV2/expanded_conv_6/expand/Relu6", "op": "_FusedConv2D", "input": ["StatefulPartitionedCall/sequential/keras_layer/StatefulPartitionedCall/StatefulPartitionedCall/StatefulPartitionedCall/predict/MobilenetV2/expanded_conv_5/add", "StatefulPartitionedCall/sequential/keras_layer/StatefulPartitionedCall/StatefulPartitionedCall/StatefulPartitionedCall/predict/MobilenetV2/expanded_conv_6/expand/Conv2D_weights", "StatefulPartitionedCall/sequential/keras_layer/StatefulPartitionedCall/StatefulPartitionedCall/StatefulPartitionedCall/predict/MobilenetV2/expanded_conv_6/expand/Conv2D_bn_offset"], "device": "/device:CPU:0", "attr": {"epsilon": {"f": 0.0}, "use_cudnn_on_gpu": {"b": true}, "explicit_paddings": {"list": {}}, "data_format": {"s": "TkhXQw=="}, "fused_ops": {"list": {"s": ["Qmlhc0FkZA==", "UmVsdTY="]}}, "dilations": {"list": {"i": ["1", "1", "1", "1"]}}, "strides": {"list": {"i": ["1", "1", "1", "1"]}}, "num_args": {"i": "1"}, "T": {"type": "DT_FLOAT"}, "padding": {"s": "U0FNRQ=="}}}, {"name": "StatefulPartitionedCall/sequential/keras_layer/StatefulPartitionedCall/StatefulPartitionedCall/StatefulPartitionedCall/predict/MobilenetV2/expanded_conv_6/depthwise/depthwise", "op": "FusedDepthwiseConv2dNative", "input": ["StatefulPartitionedCall/sequential/keras_layer/StatefulPartitionedCall/StatefulPartitionedCall/StatefulPartitionedCall/predict/MobilenetV2/expanded_conv_6/expand/Relu6", "StatefulPartitionedCall/sequential/keras_layer/StatefulPartitionedCall/StatefulPartitionedCall/StatefulPartitionedCall/predict/MobilenetV2/expanded_conv_6/depthwise/depthwise_weights", "StatefulPartitionedCall/sequential/keras_layer/StatefulPartitionedCall/StatefulPartitionedCall/StatefulPartitionedCall/predict/MobilenetV2/expanded_conv_6/depthwise/depthwise_bn_offset"], "attr": {"padding": {"s": "U0FNRQ=="}, "T": {"type": "DT_FLOAT"}, "num_args": {"i": "1"}, "data_format": {"s": "TkhXQw=="}, "dilations": {"list": {"i": ["1", "1", "1", "1"]}}, "strides": {"list": {"i": ["1", "2", "2", "1"]}}, "fused_ops": {"list": {"s": ["Qmlhc0FkZA==", "UmVsdTY="]}}}}, {"name": "StatefulPartitionedCall/sequential/keras_layer/StatefulPartitionedCall/StatefulPartitionedCall/StatefulPartitionedCall/predict/MobilenetV2/expanded_conv_6/project/BatchNorm/FusedBatchNorm", "op": "_FusedConv2D", "input": ["StatefulPartitionedCall/sequential/keras_layer/StatefulPartitionedCall/StatefulPartitionedCall/StatefulPartitionedCall/predict/MobilenetV2/expanded_conv_6/depthwise/depthwise", "StatefulPartitionedCall/sequential/keras_layer/StatefulPartitionedCall/StatefulPartitionedCall/StatefulPartitionedCall/predict/MobilenetV2/expanded_conv_6/project/Conv2D_weights", "StatefulPartitionedCall/sequential/keras_layer/StatefulPartitionedCall/StatefulPartitionedCall/StatefulPartitionedCall/predict/MobilenetV2/expanded_conv_6/project/Conv2D_bn_offset"], "device": "/device:CPU:0", "attr": {"strides": {"list": {"i": ["1", "1", "1", "1"]}}, "padding": {"s": "U0FNRQ=="}, "use_cudnn_on_gpu": {"b": true}, "epsilon": {"f": 0.0}, "T": {"type": "DT_FLOAT"}, "num_args": {"i": "1"}, "data_format": {"s": "TkhXQw=="}, "fused_ops": {"list": {"s": ["Qmlhc0FkZA=="]}}, "dilations": {"list": {"i": ["1", "1", "1", "1"]}}, "explicit_paddings": {"list": {}}}}, {"name": "StatefulPartitionedCall/sequential/keras_layer/StatefulPartitionedCall/StatefulPartitionedCall/StatefulPartitionedCall/predict/MobilenetV2/expanded_conv_7/expand/Relu6", "op": "_FusedConv2D", "input": ["StatefulPartitionedCall/sequential/keras_layer/StatefulPartitionedCall/StatefulPartitionedCall/StatefulPartitionedCall/predict/MobilenetV2/expanded_conv_6/project/BatchNorm/FusedBatchNorm", "StatefulPartitionedCall/sequential/keras_layer/StatefulPartitionedCall/StatefulPartitionedCall/StatefulPartitionedCall/predict/MobilenetV2/expanded_conv_7/expand/Conv2D_weights", "StatefulPartitionedCall/sequential/keras_layer/StatefulPartitionedCall/StatefulPartitionedCall/StatefulPartitionedCall/predict/MobilenetV2/expanded_conv_7/expand/Conv2D_bn_offset"], "device": "/device:CPU:0", "attr": {"explicit_paddings": {"list": {}}, "padding": {"s": "U0FNRQ=="}, "num_args": {"i": "1"}, "strides": {"list": {"i": ["1", "1", "1", "1"]}}, "fused_ops": {"list": {"s": ["Qmlhc0FkZA==", "UmVsdTY="]}}, "T": {"type": "DT_FLOAT"}, "use_cudnn_on_gpu": {"b": true}, "dilations": {"list": {"i": ["1", "1", "1", "1"]}}, "epsilon": {"f": 0.0}, "data_format": {"s": "TkhXQw=="}}}, {"name": "StatefulPartitionedCall/sequential/keras_layer/StatefulPartitionedCall/StatefulPartitionedCall/StatefulPartitionedCall/predict/MobilenetV2/expanded_conv_7/depthwise/depthwise", "op": "FusedDepthwiseConv2dNative", "input": ["StatefulPartitionedCall/sequential/keras_layer/StatefulPartitionedCall/StatefulPartitionedCall/StatefulPartitionedCall/predict/MobilenetV2/expanded_conv_7/expand/Relu6", "StatefulPartitionedCall/sequential/keras_layer/StatefulPartitionedCall/StatefulPartitionedCall/StatefulPartitionedCall/predict/MobilenetV2/expanded_conv_7/depthwise/depthwise_weights", "StatefulPartitionedCall/sequential/keras_layer/StatefulPartitionedCall/StatefulPartitionedCall/StatefulPartitionedCall/predict/MobilenetV2/expanded_conv_7/depthwise/depthwise_bn_offset"], "attr": {"strides": {"list": {"i": ["1", "1", "1", "1"]}}, "dilations": {"list": {"i": ["1", "1", "1", "1"]}}, "data_format": {"s": "TkhXQw=="}, "padding": {"s": "U0FNRQ=="}, "T": {"type": "DT_FLOAT"}, "num_args": {"i": "1"}, "fused_ops": {"list": {"s": ["Qmlhc0FkZA==", "UmVsdTY="]}}}}, {"name": "StatefulPartitionedCall/sequential/keras_layer/StatefulPartitionedCall/StatefulPartitionedCall/StatefulPartitionedCall/predict/MobilenetV2/expanded_conv_7/project/BatchNorm/FusedBatchNorm", "op": "_FusedConv2D", "input": ["StatefulPartitionedCall/sequential/keras_layer/StatefulPartitionedCall/StatefulPartitionedCall/StatefulPartitionedCall/predict/MobilenetV2/expanded_conv_7/depthwise/depthwise", "StatefulPartitionedCall/sequential/keras_layer/StatefulPartitionedCall/StatefulPartitionedCall/StatefulPartitionedCall/predict/MobilenetV2/expanded_conv_7/project/Conv2D_weights", "StatefulPartitionedCall/sequential/keras_layer/StatefulPartitionedCall/StatefulPartitionedCall/StatefulPartitionedCall/predict/MobilenetV2/expanded_conv_7/project/Conv2D_bn_offset"], "device": "/device:CPU:0", "attr": {"num_args": {"i": "1"}, "data_format": {"s": "TkhXQw=="}, "explicit_paddings": {"list": {}}, "use_cudnn_on_gpu": {"b": true}, "epsilon": {"f": 0.0}, "fused_ops": {"list": {"s": ["Qmlhc0FkZA=="]}}, "strides": {"list": {"i": ["1", "1", "1", "1"]}}, "padding": {"s": "U0FNRQ=="}, "dilations": {"list": {"i": ["1", "1", "1", "1"]}}, "T": {"type": "DT_FLOAT"}}}, {"name": "StatefulPartitionedCall/sequential/keras_layer/StatefulPartitionedCall/StatefulPartitionedCall/StatefulPartitionedCall/predict/MobilenetV2/expanded_conv_7/add", "op": "Add", "input": ["StatefulPartitionedCall/sequential/keras_layer/StatefulPartitionedCall/StatefulPartitionedCall/StatefulPartitionedCall/predict/MobilenetV2/expanded_conv_6/project/BatchNorm/FusedBatchNorm", "StatefulPartitionedCall/sequential/keras_layer/StatefulPartitionedCall/StatefulPartitionedCall/StatefulPartitionedCall/predict/MobilenetV2/expanded_conv_7/project/BatchNorm/FusedBatchNorm"], "attr": {"T": {"type": "DT_FLOAT"}}}, {"name": "StatefulPartitionedCall/sequential/keras_layer/StatefulPartitionedCall/StatefulPartitionedCall/StatefulPartitionedCall/predict/MobilenetV2/expanded_conv_8/expand/Relu6", "op": "_FusedConv2D", "input": ["StatefulPartitionedCall/sequential/keras_layer/StatefulPartitionedCall/StatefulPartitionedCall/StatefulPartitionedCall/predict/MobilenetV2/expanded_conv_7/add", "StatefulPartitionedCall/sequential/keras_layer/StatefulPartitionedCall/StatefulPartitionedCall/StatefulPartitionedCall/predict/MobilenetV2/expanded_conv_8/expand/Conv2D_weights", "StatefulPartitionedCall/sequential/keras_layer/StatefulPartitionedCall/StatefulPartitionedCall/StatefulPartitionedCall/predict/MobilenetV2/expanded_conv_8/expand/Conv2D_bn_offset"], "device": "/device:CPU:0", "attr": {"num_args": {"i": "1"}, "padding": {"s": "U0FNRQ=="}, "fused_ops": {"list": {"s": ["Qmlhc0FkZA==", "UmVsdTY="]}}, "T": {"type": "DT_FLOAT"}, "data_format": {"s": "TkhXQw=="}, "strides": {"list": {"i": ["1", "1", "1", "1"]}}, "use_cudnn_on_gpu": {"b": true}, "explicit_paddings": {"list": {}}, "dilations": {"list": {"i": ["1", "1", "1", "1"]}}, "epsilon": {"f": 0.0}}}, {"name": "StatefulPartitionedCall/sequential/keras_layer/StatefulPartitionedCall/StatefulPartitionedCall/StatefulPartitionedCall/predict/MobilenetV2/expanded_conv_8/depthwise/depthwise", "op": "FusedDepthwiseConv2dNative", "input": ["StatefulPartitionedCall/sequential/keras_layer/StatefulPartitionedCall/StatefulPartitionedCall/StatefulPartitionedCall/predict/MobilenetV2/expanded_conv_8/expand/Relu6", "StatefulPartitionedCall/sequential/keras_layer/StatefulPartitionedCall/StatefulPartitionedCall/StatefulPartitionedCall/predict/MobilenetV2/expanded_conv_8/depthwise/depthwise_weights", "StatefulPartitionedCall/sequential/keras_layer/StatefulPartitionedCall/StatefulPartitionedCall/StatefulPartitionedCall/predict/MobilenetV2/expanded_conv_8/depthwise/depthwise_bn_offset"], "attr": {"T": {"type": "DT_FLOAT"}, "data_format": {"s": "TkhXQw=="}, "strides": {"list": {"i": ["1", "1", "1", "1"]}}, "fused_ops": {"list": {"s": ["Qmlhc0FkZA==", "UmVsdTY="]}}, "padding": {"s": "U0FNRQ=="}, "dilations": {"list": {"i": ["1", "1", "1", "1"]}}, "num_args": {"i": "1"}}}, {"name": "StatefulPartitionedCall/sequential/keras_layer/StatefulPartitionedCall/StatefulPartitionedCall/StatefulPartitionedCall/predict/MobilenetV2/expanded_conv_8/project/BatchNorm/FusedBatchNorm", "op": "_FusedConv2D", "input": ["StatefulPartitionedCall/sequential/keras_layer/StatefulPartitionedCall/StatefulPartitionedCall/StatefulPartitionedCall/predict/MobilenetV2/expanded_conv_8/depthwise/depthwise", "StatefulPartitionedCall/sequential/keras_layer/StatefulPartitionedCall/StatefulPartitionedCall/StatefulPartitionedCall/predict/MobilenetV2/expanded_conv_8/project/Conv2D_weights", "StatefulPartitionedCall/sequential/keras_layer/StatefulPartitionedCall/StatefulPartitionedCall/StatefulPartitionedCall/predict/MobilenetV2/expanded_conv_8/project/Conv2D_bn_offset"], "device": "/device:CPU:0", "attr": {"strides": {"list": {"i": ["1", "1", "1", "1"]}}, "fused_ops": {"list": {"s": ["Qmlhc0FkZA=="]}}, "epsilon": {"f": 0.0}, "explicit_paddings": {"list": {}}, "dilations": {"list": {"i": ["1", "1", "1", "1"]}}, "use_cudnn_on_gpu": {"b": true}, "data_format": {"s": "TkhXQw=="}, "padding": {"s": "U0FNRQ=="}, "T": {"type": "DT_FLOAT"}, "num_args": {"i": "1"}}}, {"name": "StatefulPartitionedCall/sequential/keras_layer/StatefulPartitionedCall/StatefulPartitionedCall/StatefulPartitionedCall/predict/MobilenetV2/expanded_conv_8/add", "op": "Add", "input": ["StatefulPartitionedCall/sequential/keras_layer/StatefulPartitionedCall/StatefulPartitionedCall/StatefulPartitionedCall/predict/MobilenetV2/expanded_conv_7/add", "StatefulPartitionedCall/sequential/keras_layer/StatefulPartitionedCall/StatefulPartitionedCall/StatefulPartitionedCall/predict/MobilenetV2/expanded_conv_8/project/BatchNorm/FusedBatchNorm"], "attr": {"T": {"type": "DT_FLOAT"}}}, {"name": "StatefulPartitionedCall/sequential/keras_layer/StatefulPartitionedCall/StatefulPartitionedCall/StatefulPartitionedCall/predict/MobilenetV2/expanded_conv_9/expand/Relu6", "op": "_FusedConv2D", "input": ["StatefulPartitionedCall/sequential/keras_layer/StatefulPartitionedCall/StatefulPartitionedCall/StatefulPartitionedCall/predict/MobilenetV2/expanded_conv_8/add", "StatefulPartitionedCall/sequential/keras_layer/StatefulPartitionedCall/StatefulPartitionedCall/StatefulPartitionedCall/predict/MobilenetV2/expanded_conv_9/expand/Conv2D_weights", "StatefulPartitionedCall/sequential/keras_layer/StatefulPartitionedCall/StatefulPartitionedCall/StatefulPartitionedCall/predict/MobilenetV2/expanded_conv_9/expand/Conv2D_bn_offset"], "device": "/device:CPU:0", "attr": {"padding": {"s": "U0FNRQ=="}, "strides": {"list": {"i": ["1", "1", "1", "1"]}}, "epsilon": {"f": 0.0}, "fused_ops": {"list": {"s": ["Qmlhc0FkZA==", "UmVsdTY="]}}, "dilations": {"list": {"i": ["1", "1", "1", "1"]}}, "explicit_paddings": {"list": {}}, "use_cudnn_on_gpu": {"b": true}, "num_args": {"i": "1"}, "data_format": {"s": "TkhXQw=="}, "T": {"type": "DT_FLOAT"}}}, {"name": "StatefulPartitionedCall/sequential/keras_layer/StatefulPartitionedCall/StatefulPartitionedCall/StatefulPartitionedCall/predict/MobilenetV2/expanded_conv_9/depthwise/depthwise", "op": "FusedDepthwiseConv2dNative", "input": ["StatefulPartitionedCall/sequential/keras_layer/StatefulPartitionedCall/StatefulPartitionedCall/StatefulPartitionedCall/predict/MobilenetV2/expanded_conv_9/expand/Relu6", "StatefulPartitionedCall/sequential/keras_layer/StatefulPartitionedCall/StatefulPartitionedCall/StatefulPartitionedCall/predict/MobilenetV2/expanded_conv_9/depthwise/depthwise_weights", "StatefulPartitionedCall/sequential/keras_layer/StatefulPartitionedCall/StatefulPartitionedCall/StatefulPartitionedCall/predict/MobilenetV2/expanded_conv_9/depthwise/depthwise_bn_offset"], "attr": {"T": {"type": "DT_FLOAT"}, "padding": {"s": "U0FNRQ=="}, "fused_ops": {"list": {"s": ["Qmlhc0FkZA==", "UmVsdTY="]}}, "dilations": {"list": {"i": ["1", "1", "1", "1"]}}, "strides": {"list": {"i": ["1", "1", "1", "1"]}}, "num_args": {"i": "1"}, "data_format": {"s": "TkhXQw=="}}}, {"name": "StatefulPartitionedCall/sequential/keras_layer/StatefulPartitionedCall/StatefulPartitionedCall/StatefulPartitionedCall/predict/MobilenetV2/expanded_conv_9/project/BatchNorm/FusedBatchNorm", "op": "_FusedConv2D", "input": ["StatefulPartitionedCall/sequential/keras_layer/StatefulPartitionedCall/StatefulPartitionedCall/StatefulPartitionedCall/predict/MobilenetV2/expanded_conv_9/depthwise/depthwise", "StatefulPartitionedCall/sequential/keras_layer/StatefulPartitionedCall/StatefulPartitionedCall/StatefulPartitionedCall/predict/MobilenetV2/expanded_conv_9/project/Conv2D_weights", "StatefulPartitionedCall/sequential/keras_layer/StatefulPartitionedCall/StatefulPartitionedCall/StatefulPartitionedCall/predict/MobilenetV2/expanded_conv_9/project/Conv2D_bn_offset"], "device": "/device:CPU:0", "attr": {"dilations": {"list": {"i": ["1", "1", "1", "1"]}}, "fused_ops": {"list": {"s": ["Qmlhc0FkZA=="]}}, "T": {"type": "DT_FLOAT"}, "num_args": {"i": "1"}, "data_format": {"s": "TkhXQw=="}, "strides": {"list": {"i": ["1", "1", "1", "1"]}}, "padding": {"s": "U0FNRQ=="}, "use_cudnn_on_gpu": {"b": true}, "epsilon": {"f": 0.0}, "explicit_paddings": {"list": {}}}}, {"name": "StatefulPartitionedCall/sequential/keras_layer/StatefulPartitionedCall/StatefulPartitionedCall/StatefulPartitionedCall/predict/MobilenetV2/expanded_conv_9/add", "op": "Add", "input": ["StatefulPartitionedCall/sequential/keras_layer/StatefulPartitionedCall/StatefulPartitionedCall/StatefulPartitionedCall/predict/MobilenetV2/expanded_conv_8/add", "StatefulPartitionedCall/sequential/keras_layer/StatefulPartitionedCall/StatefulPartitionedCall/StatefulPartitionedCall/predict/MobilenetV2/expanded_conv_9/project/BatchNorm/FusedBatchNorm"], "attr": {"T": {"type": "DT_FLOAT"}}}, {"name": "StatefulPartitionedCall/sequential/keras_layer/StatefulPartitionedCall/StatefulPartitionedCall/StatefulPartitionedCall/predict/MobilenetV2/expanded_conv_10/expand/Relu6", "op": "_FusedConv2D", "input": ["StatefulPartitionedCall/sequential/keras_layer/StatefulPartitionedCall/StatefulPartitionedCall/StatefulPartitionedCall/predict/MobilenetV2/expanded_conv_9/add", "StatefulPartitionedCall/sequential/keras_layer/StatefulPartitionedCall/StatefulPartitionedCall/StatefulPartitionedCall/predict/MobilenetV2/expanded_conv_10/expand/Conv2D_weights", "StatefulPartitionedCall/sequential/keras_layer/StatefulPartitionedCall/StatefulPartitionedCall/StatefulPartitionedCall/predict/MobilenetV2/expanded_conv_10/expand/Conv2D_bn_offset"], "device": "/device:CPU:0", "attr": {"dilations": {"list": {"i": ["1", "1", "1", "1"]}}, "use_cudnn_on_gpu": {"b": true}, "data_format": {"s": "TkhXQw=="}, "epsilon": {"f": 0.0}, "num_args": {"i": "1"}, "T": {"type": "DT_FLOAT"}, "fused_ops": {"list": {"s": ["Qmlhc0FkZA==", "UmVsdTY="]}}, "strides": {"list": {"i": ["1", "1", "1", "1"]}}, "padding": {"s": "U0FNRQ=="}, "explicit_paddings": {"list": {}}}}, {"name": "StatefulPartitionedCall/sequential/keras_layer/StatefulPartitionedCall/StatefulPartitionedCall/StatefulPartitionedCall/predict/MobilenetV2/expanded_conv_10/depthwise/depthwise", "op": "FusedDepthwiseConv2dNative", "input": ["StatefulPartitionedCall/sequential/keras_layer/StatefulPartitionedCall/StatefulPartitionedCall/StatefulPartitionedCall/predict/MobilenetV2/expanded_conv_10/expand/Relu6", "StatefulPartitionedCall/sequential/keras_layer/StatefulPartitionedCall/StatefulPartitionedCall/StatefulPartitionedCall/predict/MobilenetV2/expanded_conv_10/depthwise/depthwise_weights", "StatefulPartitionedCall/sequential/keras_layer/StatefulPartitionedCall/StatefulPartitionedCall/StatefulPartitionedCall/predict/MobilenetV2/expanded_conv_10/depthwise/depthwise_bn_offset"], "attr": {"padding": {"s": "U0FNRQ=="}, "T": {"type": "DT_FLOAT"}, "fused_ops": {"list": {"s": ["Qmlhc0FkZA==", "UmVsdTY="]}}, "data_format": {"s": "TkhXQw=="}, "dilations": {"list": {"i": ["1", "1", "1", "1"]}}, "num_args": {"i": "1"}, "strides": {"list": {"i": ["1", "1", "1", "1"]}}}}, {"name": "StatefulPartitionedCall/sequential/keras_layer/StatefulPartitionedCall/StatefulPartitionedCall/StatefulPartitionedCall/predict/MobilenetV2/expanded_conv_10/project/BatchNorm/FusedBatchNorm", "op": "_FusedConv2D", "input": ["StatefulPartitionedCall/sequential/keras_layer/StatefulPartitionedCall/StatefulPartitionedCall/StatefulPartitionedCall/predict/MobilenetV2/expanded_conv_10/depthwise/depthwise", "StatefulPartitionedCall/sequential/keras_layer/StatefulPartitionedCall/StatefulPartitionedCall/StatefulPartitionedCall/predict/MobilenetV2/expanded_conv_10/project/Conv2D_weights", "StatefulPartitionedCall/sequential/keras_layer/StatefulPartitionedCall/StatefulPartitionedCall/StatefulPartitionedCall/predict/MobilenetV2/expanded_conv_10/project/Conv2D_bn_offset"], "device": "/device:CPU:0", "attr": {"fused_ops": {"list": {"s": ["Qmlhc0FkZA=="]}}, "padding": {"s": "U0FNRQ=="}, "data_format": {"s": "TkhXQw=="}, "strides": {"list": {"i": ["1", "1", "1", "1"]}}, "dilations": {"list": {"i": ["1", "1", "1", "1"]}}, "explicit_paddings": {"list": {}}, "num_args": {"i": "1"}, "T": {"type": "DT_FLOAT"}, "epsilon": {"f": 0.0}, "use_cudnn_on_gpu": {"b": true}}}, {"name": "StatefulPartitionedCall/sequential/keras_layer/StatefulPartitionedCall/StatefulPartitionedCall/StatefulPartitionedCall/predict/MobilenetV2/expanded_conv_11/expand/Relu6", "op": "_FusedConv2D", "input": ["StatefulPartitionedCall/sequential/keras_layer/StatefulPartitionedCall/StatefulPartitionedCall/StatefulPartitionedCall/predict/MobilenetV2/expanded_conv_10/project/BatchNorm/FusedBatchNorm", "StatefulPartitionedCall/sequential/keras_layer/StatefulPartitionedCall/StatefulPartitionedCall/StatefulPartitionedCall/predict/MobilenetV2/expanded_conv_11/expand/Conv2D_weights", "StatefulPartitionedCall/sequential/keras_layer/StatefulPartitionedCall/StatefulPartitionedCall/StatefulPartitionedCall/predict/MobilenetV2/expanded_conv_11/expand/Conv2D_bn_offset"], "device": "/device:CPU:0", "attr": {"explicit_paddings": {"list": {}}, "T": {"type": "DT_FLOAT"}, "fused_ops": {"list": {"s": ["Qmlhc0FkZA==", "UmVsdTY="]}}, "epsilon": {"f": 0.0}, "padding": {"s": "U0FNRQ=="}, "strides": {"list": {"i": ["1", "1", "1", "1"]}}, "num_args": {"i": "1"}, "data_format": {"s": "TkhXQw=="}, "use_cudnn_on_gpu": {"b": true}, "dilations": {"list": {"i": ["1", "1", "1", "1"]}}}}, {"name": "StatefulPartitionedCall/sequential/keras_layer/StatefulPartitionedCall/StatefulPartitionedCall/StatefulPartitionedCall/predict/MobilenetV2/expanded_conv_11/depthwise/depthwise", "op": "FusedDepthwiseConv2dNative", "input": ["StatefulPartitionedCall/sequential/keras_layer/StatefulPartitionedCall/StatefulPartitionedCall/StatefulPartitionedCall/predict/MobilenetV2/expanded_conv_11/expand/Relu6", "StatefulPartitionedCall/sequential/keras_layer/StatefulPartitionedCall/StatefulPartitionedCall/StatefulPartitionedCall/predict/MobilenetV2/expanded_conv_11/depthwise/depthwise_weights", "StatefulPartitionedCall/sequential/keras_layer/StatefulPartitionedCall/StatefulPartitionedCall/StatefulPartitionedCall/predict/MobilenetV2/expanded_conv_11/depthwise/depthwise_bn_offset"], "attr": {"num_args": {"i": "1"}, "padding": {"s": "U0FNRQ=="}, "fused_ops": {"list": {"s": ["Qmlhc0FkZA==", "UmVsdTY="]}}, "strides": {"list": {"i": ["1", "1", "1", "1"]}}, "dilations": {"list": {"i": ["1", "1", "1", "1"]}}, "data_format": {"s": "TkhXQw=="}, "T": {"type": "DT_FLOAT"}}}, {"name": "StatefulPartitionedCall/sequential/keras_layer/StatefulPartitionedCall/StatefulPartitionedCall/StatefulPartitionedCall/predict/MobilenetV2/expanded_conv_11/project/BatchNorm/FusedBatchNorm", "op": "_FusedConv2D", "input": ["StatefulPartitionedCall/sequential/keras_layer/StatefulPartitionedCall/StatefulPartitionedCall/StatefulPartitionedCall/predict/MobilenetV2/expanded_conv_11/depthwise/depthwise", "StatefulPartitionedCall/sequential/keras_layer/StatefulPartitionedCall/StatefulPartitionedCall/StatefulPartitionedCall/predict/MobilenetV2/expanded_conv_11/project/Conv2D_weights", "StatefulPartitionedCall/sequential/keras_layer/StatefulPartitionedCall/StatefulPartitionedCall/StatefulPartitionedCall/predict/MobilenetV2/expanded_conv_11/project/Conv2D_bn_offset"], "device": "/device:CPU:0", "attr": {"explicit_paddings": {"list": {}}, "epsilon": {"f": 0.0}, "fused_ops": {"list": {"s": ["Qmlhc0FkZA=="]}}, "data_format": {"s": "TkhXQw=="}, "dilations": {"list": {"i": ["1", "1", "1", "1"]}}, "use_cudnn_on_gpu": {"b": true}, "padding": {"s": "U0FNRQ=="}, "num_args": {"i": "1"}, "T": {"type": "DT_FLOAT"}, "strides": {"list": {"i": ["1", "1", "1", "1"]}}}}, {"name": "StatefulPartitionedCall/sequential/keras_layer/StatefulPartitionedCall/StatefulPartitionedCall/StatefulPartitionedCall/predict/MobilenetV2/expanded_conv_11/add", "op": "Add", "input": ["StatefulPartitionedCall/sequential/keras_layer/StatefulPartitionedCall/StatefulPartitionedCall/StatefulPartitionedCall/predict/MobilenetV2/expanded_conv_10/project/BatchNorm/FusedBatchNorm", "StatefulPartitionedCall/sequential/keras_layer/StatefulPartitionedCall/StatefulPartitionedCall/StatefulPartitionedCall/predict/MobilenetV2/expanded_conv_11/project/BatchNorm/FusedBatchNorm"], "attr": {"T": {"type": "DT_FLOAT"}}}, {"name": "StatefulPartitionedCall/sequential/keras_layer/StatefulPartitionedCall/StatefulPartitionedCall/StatefulPartitionedCall/predict/MobilenetV2/expanded_conv_12/expand/Relu6", "op": "_FusedConv2D", "input": ["StatefulPartitionedCall/sequential/keras_layer/StatefulPartitionedCall/StatefulPartitionedCall/StatefulPartitionedCall/predict/MobilenetV2/expanded_conv_11/add", "StatefulPartitionedCall/sequential/keras_layer/StatefulPartitionedCall/StatefulPartitionedCall/StatefulPartitionedCall/predict/MobilenetV2/expanded_conv_12/expand/Conv2D_weights", "StatefulPartitionedCall/sequential/keras_layer/StatefulPartitionedCall/StatefulPartitionedCall/StatefulPartitionedCall/predict/MobilenetV2/expanded_conv_12/expand/Conv2D_bn_offset"], "device": "/device:CPU:0", "attr": {"data_format": {"s": "TkhXQw=="}, "dilations": {"list": {"i": ["1", "1", "1", "1"]}}, "num_args": {"i": "1"}, "padding": {"s": "U0FNRQ=="}, "use_cudnn_on_gpu": {"b": true}, "explicit_paddings": {"list": {}}, "strides": {"list": {"i": ["1", "1", "1", "1"]}}, "epsilon": {"f": 0.0}, "T": {"type": "DT_FLOAT"}, "fused_ops": {"list": {"s": ["Qmlhc0FkZA==", "UmVsdTY="]}}}}, {"name": "StatefulPartitionedCall/sequential/keras_layer/StatefulPartitionedCall/StatefulPartitionedCall/StatefulPartitionedCall/predict/MobilenetV2/expanded_conv_12/depthwise/depthwise", "op": "FusedDepthwiseConv2dNative", "input": ["StatefulPartitionedCall/sequential/keras_layer/StatefulPartitionedCall/StatefulPartitionedCall/StatefulPartitionedCall/predict/MobilenetV2/expanded_conv_12/expand/Relu6", "StatefulPartitionedCall/sequential/keras_layer/StatefulPartitionedCall/StatefulPartitionedCall/StatefulPartitionedCall/predict/MobilenetV2/expanded_conv_12/depthwise/depthwise_weights", "StatefulPartitionedCall/sequential/keras_layer/StatefulPartitionedCall/StatefulPartitionedCall/StatefulPartitionedCall/predict/MobilenetV2/expanded_conv_12/depthwise/depthwise_bn_offset"], "attr": {"dilations": {"list": {"i": ["1", "1", "1", "1"]}}, "padding": {"s": "U0FNRQ=="}, "data_format": {"s": "TkhXQw=="}, "T": {"type": "DT_FLOAT"}, "strides": {"list": {"i": ["1", "1", "1", "1"]}}, "fused_ops": {"list": {"s": ["Qmlhc0FkZA==", "UmVsdTY="]}}, "num_args": {"i": "1"}}}, {"name": "StatefulPartitionedCall/sequential/keras_layer/StatefulPartitionedCall/StatefulPartitionedCall/StatefulPartitionedCall/predict/MobilenetV2/expanded_conv_12/project/BatchNorm/FusedBatchNorm", "op": "_FusedConv2D", "input": ["StatefulPartitionedCall/sequential/keras_layer/StatefulPartitionedCall/StatefulPartitionedCall/StatefulPartitionedCall/predict/MobilenetV2/expanded_conv_12/depthwise/depthwise", "StatefulPartitionedCall/sequential/keras_layer/StatefulPartitionedCall/StatefulPartitionedCall/StatefulPartitionedCall/predict/MobilenetV2/expanded_conv_12/project/Conv2D_weights", "StatefulPartitionedCall/sequential/keras_layer/StatefulPartitionedCall/StatefulPartitionedCall/StatefulPartitionedCall/predict/MobilenetV2/expanded_conv_12/project/Conv2D_bn_offset"], "device": "/device:CPU:0", "attr": {"explicit_paddings": {"list": {}}, "epsilon": {"f": 0.0}, "num_args": {"i": "1"}, "strides": {"list": {"i": ["1", "1", "1", "1"]}}, "data_format": {"s": "TkhXQw=="}, "fused_ops": {"list": {"s": ["Qmlhc0FkZA=="]}}, "dilations": {"list": {"i": ["1", "1", "1", "1"]}}, "padding": {"s": "U0FNRQ=="}, "T": {"type": "DT_FLOAT"}, "use_cudnn_on_gpu": {"b": true}}}, {"name": "StatefulPartitionedCall/sequential/keras_layer/StatefulPartitionedCall/StatefulPartitionedCall/StatefulPartitionedCall/predict/MobilenetV2/expanded_conv_12/add", "op": "Add", "input": ["StatefulPartitionedCall/sequential/keras_layer/StatefulPartitionedCall/StatefulPartitionedCall/StatefulPartitionedCall/predict/MobilenetV2/expanded_conv_11/add", "StatefulPartitionedCall/sequential/keras_layer/StatefulPartitionedCall/StatefulPartitionedCall/StatefulPartitionedCall/predict/MobilenetV2/expanded_conv_12/project/BatchNorm/FusedBatchNorm"], "attr": {"T": {"type": "DT_FLOAT"}}}, {"name": "StatefulPartitionedCall/sequential/keras_layer/StatefulPartitionedCall/StatefulPartitionedCall/StatefulPartitionedCall/predict/MobilenetV2/expanded_conv_13/expand/Relu6", "op": "_FusedConv2D", "input": ["StatefulPartitionedCall/sequential/keras_layer/StatefulPartitionedCall/StatefulPartitionedCall/StatefulPartitionedCall/predict/MobilenetV2/expanded_conv_12/add", "StatefulPartitionedCall/sequential/keras_layer/StatefulPartitionedCall/StatefulPartitionedCall/StatefulPartitionedCall/predict/MobilenetV2/expanded_conv_13/expand/Conv2D_weights", "StatefulPartitionedCall/sequential/keras_layer/StatefulPartitionedCall/StatefulPartitionedCall/StatefulPartitionedCall/predict/MobilenetV2/expanded_conv_13/expand/Conv2D_bn_offset"], "device": "/device:CPU:0", "attr": {"epsilon": {"f": 0.0}, "strides": {"list": {"i": ["1", "1", "1", "1"]}}, "dilations": {"list": {"i": ["1", "1", "1", "1"]}}, "padding": {"s": "U0FNRQ=="}, "use_cudnn_on_gpu": {"b": true}, "data_format": {"s": "TkhXQw=="}, "num_args": {"i": "1"}, "fused_ops": {"list": {"s": ["Qmlhc0FkZA==", "UmVsdTY="]}}, "T": {"type": "DT_FLOAT"}, "explicit_paddings": {"list": {}}}}, {"name": "StatefulPartitionedCall/sequential/keras_layer/StatefulPartitionedCall/StatefulPartitionedCall/StatefulPartitionedCall/predict/MobilenetV2/expanded_conv_13/depthwise/depthwise", "op": "FusedDepthwiseConv2dNative", "input": ["StatefulPartitionedCall/sequential/keras_layer/StatefulPartitionedCall/StatefulPartitionedCall/StatefulPartitionedCall/predict/MobilenetV2/expanded_conv_13/expand/Relu6", "StatefulPartitionedCall/sequential/keras_layer/StatefulPartitionedCall/StatefulPartitionedCall/StatefulPartitionedCall/predict/MobilenetV2/expanded_conv_13/depthwise/depthwise_weights", "StatefulPartitionedCall/sequential/keras_layer/StatefulPartitionedCall/StatefulPartitionedCall/StatefulPartitionedCall/predict/MobilenetV2/expanded_conv_13/depthwise/depthwise_bn_offset"], "attr": {"T": {"type": "DT_FLOAT"}, "strides": {"list": {"i": ["1", "2", "2", "1"]}}, "padding": {"s": "U0FNRQ=="}, "dilations": {"list": {"i": ["1", "1", "1", "1"]}}, "num_args": {"i": "1"}, "data_format": {"s": "TkhXQw=="}, "fused_ops": {"list": {"s": ["Qmlhc0FkZA==", "UmVsdTY="]}}}}, {"name": "StatefulPartitionedCall/sequential/keras_layer/StatefulPartitionedCall/StatefulPartitionedCall/StatefulPartitionedCall/predict/MobilenetV2/expanded_conv_13/project/BatchNorm/FusedBatchNorm", "op": "_FusedConv2D", "input": ["StatefulPartitionedCall/sequential/keras_layer/StatefulPartitionedCall/StatefulPartitionedCall/StatefulPartitionedCall/predict/MobilenetV2/expanded_conv_13/depthwise/depthwise", "StatefulPartitionedCall/sequential/keras_layer/StatefulPartitionedCall/StatefulPartitionedCall/StatefulPartitionedCall/predict/MobilenetV2/expanded_conv_13/project/Conv2D_weights", "StatefulPartitionedCall/sequential/keras_layer/StatefulPartitionedCall/StatefulPartitionedCall/StatefulPartitionedCall/predict/MobilenetV2/expanded_conv_13/project/Conv2D_bn_offset"], "device": "/device:CPU:0", "attr": {"strides": {"list": {"i": ["1", "1", "1", "1"]}}, "use_cudnn_on_gpu": {"b": true}, "data_format": {"s": "TkhXQw=="}, "explicit_paddings": {"list": {}}, "dilations": {"list": {"i": ["1", "1", "1", "1"]}}, "padding": {"s": "U0FNRQ=="}, "epsilon": {"f": 0.0}, "num_args": {"i": "1"}, "fused_ops": {"list": {"s": ["Qmlhc0FkZA=="]}}, "T": {"type": "DT_FLOAT"}}}, {"name": "StatefulPartitionedCall/sequential/keras_layer/StatefulPartitionedCall/StatefulPartitionedCall/StatefulPartitionedCall/predict/MobilenetV2/expanded_conv_14/expand/Relu6", "op": "_FusedConv2D", "input": ["StatefulPartitionedCall/sequential/keras_layer/StatefulPartitionedCall/StatefulPartitionedCall/StatefulPartitionedCall/predict/MobilenetV2/expanded_conv_13/project/BatchNorm/FusedBatchNorm", "StatefulPartitionedCall/sequential/keras_layer/StatefulPartitionedCall/StatefulPartitionedCall/StatefulPartitionedCall/predict/MobilenetV2/expanded_conv_14/expand/Conv2D_weights", "StatefulPartitionedCall/sequential/keras_layer/StatefulPartitionedCall/StatefulPartitionedCall/StatefulPartitionedCall/predict/MobilenetV2/expanded_conv_14/expand/Conv2D_bn_offset"], "device": "/device:CPU:0", "attr": {"padding": {"s": "U0FNRQ=="}, "data_format": {"s": "TkhXQw=="}, "strides": {"list": {"i": ["1", "1", "1", "1"]}}, "use_cudnn_on_gpu": {"b": true}, "T": {"type": "DT_FLOAT"}, "num_args": {"i": "1"}, "epsilon": {"f": 0.0}, "fused_ops": {"list": {"s": ["Qmlhc0FkZA==", "UmVsdTY="]}}, "dilations": {"list": {"i": ["1", "1", "1", "1"]}}, "explicit_paddings": {"list": {}}}}, {"name": "StatefulPartitionedCall/sequential/keras_layer/StatefulPartitionedCall/StatefulPartitionedCall/StatefulPartitionedCall/predict/MobilenetV2/expanded_conv_14/depthwise/depthwise", "op": "FusedDepthwiseConv2dNative", "input": ["StatefulPartitionedCall/sequential/keras_layer/StatefulPartitionedCall/StatefulPartitionedCall/StatefulPartitionedCall/predict/MobilenetV2/expanded_conv_14/expand/Relu6", "StatefulPartitionedCall/sequential/keras_layer/StatefulPartitionedCall/StatefulPartitionedCall/StatefulPartitionedCall/predict/MobilenetV2/expanded_conv_14/depthwise/depthwise_weights", "StatefulPartitionedCall/sequential/keras_layer/StatefulPartitionedCall/StatefulPartitionedCall/StatefulPartitionedCall/predict/MobilenetV2/expanded_conv_14/depthwise/depthwise_bn_offset"], "attr": {"dilations": {"list": {"i": ["1", "1", "1", "1"]}}, "T": {"type": "DT_FLOAT"}, "fused_ops": {"list": {"s": ["Qmlhc0FkZA==", "UmVsdTY="]}}, "num_args": {"i": "1"}, "data_format": {"s": "TkhXQw=="}, "strides": {"list": {"i": ["1", "1", "1", "1"]}}, "padding": {"s": "U0FNRQ=="}}}, {"name": "StatefulPartitionedCall/sequential/keras_layer/StatefulPartitionedCall/StatefulPartitionedCall/StatefulPartitionedCall/predict/MobilenetV2/expanded_conv_14/project/BatchNorm/FusedBatchNorm", "op": "_FusedConv2D", "input": ["StatefulPartitionedCall/sequential/keras_layer/StatefulPartitionedCall/StatefulPartitionedCall/StatefulPartitionedCall/predict/MobilenetV2/expanded_conv_14/depthwise/depthwise", "StatefulPartitionedCall/sequential/keras_layer/StatefulPartitionedCall/StatefulPartitionedCall/StatefulPartitionedCall/predict/MobilenetV2/expanded_conv_14/project/Conv2D_weights", "StatefulPartitionedCall/sequential/keras_layer/StatefulPartitionedCall/StatefulPartitionedCall/StatefulPartitionedCall/predict/MobilenetV2/expanded_conv_14/project/Conv2D_bn_offset"], "device": "/device:CPU:0", "attr": {"dilations": {"list": {"i": ["1", "1", "1", "1"]}}, "data_format": {"s": "TkhXQw=="}, "epsilon": {"f": 0.0}, "num_args": {"i": "1"}, "use_cudnn_on_gpu": {"b": true}, "strides": {"list": {"i": ["1", "1", "1", "1"]}}, "explicit_paddings": {"list": {}}, "T": {"type": "DT_FLOAT"}, "padding": {"s": "U0FNRQ=="}, "fused_ops": {"list": {"s": ["Qmlhc0FkZA=="]}}}}, {"name": "StatefulPartitionedCall/sequential/keras_layer/StatefulPartitionedCall/StatefulPartitionedCall/StatefulPartitionedCall/predict/MobilenetV2/expanded_conv_14/add", "op": "Add", "input": ["StatefulPartitionedCall/sequential/keras_layer/StatefulPartitionedCall/StatefulPartitionedCall/StatefulPartitionedCall/predict/MobilenetV2/expanded_conv_13/project/BatchNorm/FusedBatchNorm", "StatefulPartitionedCall/sequential/keras_layer/StatefulPartitionedCall/StatefulPartitionedCall/StatefulPartitionedCall/predict/MobilenetV2/expanded_conv_14/project/BatchNorm/FusedBatchNorm"], "attr": {"T": {"type": "DT_FLOAT"}}}, {"name": "StatefulPartitionedCall/sequential/keras_layer/StatefulPartitionedCall/StatefulPartitionedCall/StatefulPartitionedCall/predict/MobilenetV2/expanded_conv_15/expand/Relu6", "op": "_FusedConv2D", "input": ["StatefulPartitionedCall/sequential/keras_layer/StatefulPartitionedCall/StatefulPartitionedCall/StatefulPartitionedCall/predict/MobilenetV2/expanded_conv_14/add", "StatefulPartitionedCall/sequential/keras_layer/StatefulPartitionedCall/StatefulPartitionedCall/StatefulPartitionedCall/predict/MobilenetV2/expanded_conv_15/expand/Conv2D_weights", "StatefulPartitionedCall/sequential/keras_layer/StatefulPartitionedCall/StatefulPartitionedCall/StatefulPartitionedCall/predict/MobilenetV2/expanded_conv_15/expand/Conv2D_bn_offset"], "device": "/device:CPU:0", "attr": {"padding": {"s": "U0FNRQ=="}, "explicit_paddings": {"list": {}}, "strides": {"list": {"i": ["1", "1", "1", "1"]}}, "fused_ops": {"list": {"s": ["Qmlhc0FkZA==", "UmVsdTY="]}}, "T": {"type": "DT_FLOAT"}, "epsilon": {"f": 0.0}, "num_args": {"i": "1"}, "dilations": {"list": {"i": ["1", "1", "1", "1"]}}, "use_cudnn_on_gpu": {"b": true}, "data_format": {"s": "TkhXQw=="}}}, {"name": "StatefulPartitionedCall/sequential/keras_layer/StatefulPartitionedCall/StatefulPartitionedCall/StatefulPartitionedCall/predict/MobilenetV2/expanded_conv_15/depthwise/depthwise", "op": "FusedDepthwiseConv2dNative", "input": ["StatefulPartitionedCall/sequential/keras_layer/StatefulPartitionedCall/StatefulPartitionedCall/StatefulPartitionedCall/predict/MobilenetV2/expanded_conv_15/expand/Relu6", "StatefulPartitionedCall/sequential/keras_layer/StatefulPartitionedCall/StatefulPartitionedCall/StatefulPartitionedCall/predict/MobilenetV2/expanded_conv_15/depthwise/depthwise_weights", "StatefulPartitionedCall/sequential/keras_layer/StatefulPartitionedCall/StatefulPartitionedCall/StatefulPartitionedCall/predict/MobilenetV2/expanded_conv_15/depthwise/depthwise_bn_offset"], "attr": {"data_format": {"s": "TkhXQw=="}, "num_args": {"i": "1"}, "padding": {"s": "U0FNRQ=="}, "fused_ops": {"list": {"s": ["Qmlhc0FkZA==", "UmVsdTY="]}}, "T": {"type": "DT_FLOAT"}, "dilations": {"list": {"i": ["1", "1", "1", "1"]}}, "strides": {"list": {"i": ["1", "1", "1", "1"]}}}}, {"name": "StatefulPartitionedCall/sequential/keras_layer/StatefulPartitionedCall/StatefulPartitionedCall/StatefulPartitionedCall/predict/MobilenetV2/expanded_conv_15/project/BatchNorm/FusedBatchNorm", "op": "_FusedConv2D", "input": ["StatefulPartitionedCall/sequential/keras_layer/StatefulPartitionedCall/StatefulPartitionedCall/StatefulPartitionedCall/predict/MobilenetV2/expanded_conv_15/depthwise/depthwise", "StatefulPartitionedCall/sequential/keras_layer/StatefulPartitionedCall/StatefulPartitionedCall/StatefulPartitionedCall/predict/MobilenetV2/expanded_conv_15/project/Conv2D_weights", "StatefulPartitionedCall/sequential/keras_layer/StatefulPartitionedCall/StatefulPartitionedCall/StatefulPartitionedCall/predict/MobilenetV2/expanded_conv_15/project/Conv2D_bn_offset"], "device": "/device:CPU:0", "attr": {"epsilon": {"f": 0.0}, "strides": {"list": {"i": ["1", "1", "1", "1"]}}, "padding": {"s": "U0FNRQ=="}, "T": {"type": "DT_FLOAT"}, "num_args": {"i": "1"}, "data_format": {"s": "TkhXQw=="}, "fused_ops": {"list": {"s": ["Qmlhc0FkZA=="]}}, "explicit_paddings": {"list": {}}, "dilations": {"list": {"i": ["1", "1", "1", "1"]}}, "use_cudnn_on_gpu": {"b": true}}}, {"name": "StatefulPartitionedCall/sequential/keras_layer/StatefulPartitionedCall/StatefulPartitionedCall/StatefulPartitionedCall/predict/MobilenetV2/expanded_conv_15/add", "op": "Add", "input": ["StatefulPartitionedCall/sequential/keras_layer/StatefulPartitionedCall/StatefulPartitionedCall/StatefulPartitionedCall/predict/MobilenetV2/expanded_conv_14/add", "StatefulPartitionedCall/sequential/keras_layer/StatefulPartitionedCall/StatefulPartitionedCall/StatefulPartitionedCall/predict/MobilenetV2/expanded_conv_15/project/BatchNorm/FusedBatchNorm"], "attr": {"T": {"type": "DT_FLOAT"}}}, {"name": "StatefulPartitionedCall/sequential/keras_layer/StatefulPartitionedCall/StatefulPartitionedCall/StatefulPartitionedCall/predict/MobilenetV2/expanded_conv_16/expand/Relu6", "op": "_FusedConv2D", "input": ["StatefulPartitionedCall/sequential/keras_layer/StatefulPartitionedCall/StatefulPartitionedCall/StatefulPartitionedCall/predict/MobilenetV2/expanded_conv_15/add", "StatefulPartitionedCall/sequential/keras_layer/StatefulPartitionedCall/StatefulPartitionedCall/StatefulPartitionedCall/predict/MobilenetV2/expanded_conv_16/expand/Conv2D_weights", "StatefulPartitionedCall/sequential/keras_layer/StatefulPartitionedCall/StatefulPartitionedCall/StatefulPartitionedCall/predict/MobilenetV2/expanded_conv_16/expand/Conv2D_bn_offset"], "device": "/device:CPU:0", "attr": {"fused_ops": {"list": {"s": ["Qmlhc0FkZA==", "UmVsdTY="]}}, "num_args": {"i": "1"}, "T": {"type": "DT_FLOAT"}, "epsilon": {"f": 0.0}, "use_cudnn_on_gpu": {"b": true}, "strides": {"list": {"i": ["1", "1", "1", "1"]}}, "padding": {"s": "U0FNRQ=="}, "explicit_paddings": {"list": {}}, "dilations": {"list": {"i": ["1", "1", "1", "1"]}}, "data_format": {"s": "TkhXQw=="}}}, {"name": "StatefulPartitionedCall/sequential/keras_layer/StatefulPartitionedCall/StatefulPartitionedCall/StatefulPartitionedCall/predict/MobilenetV2/expanded_conv_16/depthwise/depthwise", "op": "FusedDepthwiseConv2dNative", "input": ["StatefulPartitionedCall/sequential/keras_layer/StatefulPartitionedCall/StatefulPartitionedCall/StatefulPartitionedCall/predict/MobilenetV2/expanded_conv_16/expand/Relu6", "StatefulPartitionedCall/sequential/keras_layer/StatefulPartitionedCall/StatefulPartitionedCall/StatefulPartitionedCall/predict/MobilenetV2/expanded_conv_16/depthwise/depthwise_weights", "StatefulPartitionedCall/sequential/keras_layer/StatefulPartitionedCall/StatefulPartitionedCall/StatefulPartitionedCall/predict/MobilenetV2/expanded_conv_16/depthwise/depthwise_bn_offset"], "attr": {"fused_ops": {"list": {"s": ["Qmlhc0FkZA==", "UmVsdTY="]}}, "T": {"type": "DT_FLOAT"}, "num_args": {"i": "1"}, "dilations": {"list": {"i": ["1", "1", "1", "1"]}}, "data_format": {"s": "TkhXQw=="}, "padding": {"s": "U0FNRQ=="}, "strides": {"list": {"i": ["1", "1", "1", "1"]}}}}, {"name": "StatefulPartitionedCall/sequential/keras_layer/StatefulPartitionedCall/StatefulPartitionedCall/StatefulPartitionedCall/predict/MobilenetV2/expanded_conv_16/project/BatchNorm/FusedBatchNorm", "op": "_FusedConv2D", "input": ["StatefulPartitionedCall/sequential/keras_layer/StatefulPartitionedCall/StatefulPartitionedCall/StatefulPartitionedCall/predict/MobilenetV2/expanded_conv_16/depthwise/depthwise", "StatefulPartitionedCall/sequential/keras_layer/StatefulPartitionedCall/StatefulPartitionedCall/StatefulPartitionedCall/predict/MobilenetV2/expanded_conv_16/project/Conv2D_weights", "StatefulPartitionedCall/sequential/keras_layer/StatefulPartitionedCall/StatefulPartitionedCall/StatefulPartitionedCall/predict/MobilenetV2/expanded_conv_16/project/Conv2D_bn_offset"], "device": "/device:CPU:0", "attr": {"num_args": {"i": "1"}, "padding": {"s": "U0FNRQ=="}, "use_cudnn_on_gpu": {"b": true}, "strides": {"list": {"i": ["1", "1", "1", "1"]}}, "dilations": {"list": {"i": ["1", "1", "1", "1"]}}, "epsilon": {"f": 0.0}, "T": {"type": "DT_FLOAT"}, "data_format": {"s": "TkhXQw=="}, "explicit_paddings": {"list": {}}, "fused_ops": {"list": {"s": ["Qmlhc0FkZA=="]}}}}, {"name": "StatefulPartitionedCall/sequential/keras_layer/StatefulPartitionedCall/StatefulPartitionedCall/StatefulPartitionedCall/predict/MobilenetV2/Conv_1/Relu6", "op": "_FusedConv2D", "input": ["StatefulPartitionedCall/sequential/keras_layer/StatefulPartitionedCall/StatefulPartitionedCall/StatefulPartitionedCall/predict/MobilenetV2/expanded_conv_16/project/BatchNorm/FusedBatchNorm", "StatefulPartitionedCall/sequential/keras_layer/StatefulPartitionedCall/StatefulPartitionedCall/StatefulPartitionedCall/predict/MobilenetV2/Conv_1/Conv2D_weights", "StatefulPartitionedCall/sequential/keras_layer/StatefulPartitionedCall/StatefulPartitionedCall/StatefulPartitionedCall/predict/MobilenetV2/Conv_1/Conv2D_bn_offset"], "device": "/device:CPU:0", "attr": {"explicit_paddings": {"list": {}}, "T": {"type": "DT_FLOAT"}, "fused_ops": {"list": {"s": ["Qmlhc0FkZA==", "UmVsdTY="]}}, "padding": {"s": "U0FNRQ=="}, "dilations": {"list": {"i": ["1", "1", "1", "1"]}}, "use_cudnn_on_gpu": {"b": true}, "data_format": {"s": "TkhXQw=="}, "num_args": {"i": "1"}, "epsilon": {"f": 0.0}, "strides": {"list": {"i": ["1", "1", "1", "1"]}}}}, {"name": "StatefulPartitionedCall/sequential/keras_layer/StatefulPartitionedCall/StatefulPartitionedCall/StatefulPartitionedCall/predict/MobilenetV2/Logits/AvgPool", "op": "AvgPool", "input": ["StatefulPartitionedCall/sequential/keras_layer/StatefulPartitionedCall/StatefulPartitionedCall/StatefulPartitionedCall/predict/MobilenetV2/Conv_1/Relu6"], "attr": {"strides": {"list": {"i": ["1", "1", "1", "1"]}}, "T": {"type": "DT_FLOAT"}, "data_format": {"s": "TkhXQw=="}, "padding": {"s": "VkFMSUQ="}, "ksize": {"list": {"i": ["1", "7", "7", "1"]}}}}, {"name": "StatefulPartitionedCall/sequential/keras_layer/StatefulPartitionedCall/StatefulPartitionedCall/StatefulPartitionedCall/predict/feature_vector/SpatialSqueeze", "op": "Squeeze", "input": ["StatefulPartitionedCall/sequential/keras_layer/StatefulPartitionedCall/StatefulPartitionedCall/StatefulPartitionedCall/predict/MobilenetV2/Logits/AvgPool"], "attr": {"squeeze_dims": {"list": {"i": ["1", "2"]}}, "T": {"type": "DT_FLOAT"}}}, {"name": "StatefulPartitionedCall/sequential/dense/BiasAdd", "op": "_FusedMatMul", "input": ["StatefulPartitionedCall/sequential/keras_layer/StatefulPartitionedCall/StatefulPartitionedCall/StatefulPartitionedCall/predict/feature_vector/SpatialSqueeze", "StatefulPartitionedCall/sequential/dense/MatMul/ReadVariableOp", "StatefulPartitionedCall/sequential/dense/BiasAdd/ReadVariableOp"], "device": "/device:CPU:0", "attr": {"epsilon": {"f": 0.0}, "T": {"type": "DT_FLOAT"}, "fused_ops": {"list": {"s": ["Qmlhc0FkZA=="]}}, "num_args": {"i": "1"}, "transpose_b": {"b": false}, "transpose_a": {"b": false}}}, {"name": "StatefulPartitionedCall/sequential/dense/Softmax", "op": "Softmax", "input": ["StatefulPartitionedCall/sequential/dense/BiasAdd"], "attr": {"T": {"type": "DT_FLOAT"}}}, {"name": "Identity", "op": "Identity", "input": ["StatefulPartitionedCall/sequential/dense/Softmax"], "attr": {"T": {"type": "DT_FLOAT"}}}], "versions": {"producer": 134}}, "weightsManifest": [{"paths": ["group1-shard1of3.bin", "group1-shard2of3.bin", "group1-shard3of3.bin"], "weights": [{"name": "StatefulPartitionedCall/sequential/keras_layer/StatefulPartitionedCall/StatefulPartitionedCall/StatefulPartitionedCall/predict/MobilenetV2/Conv/Conv2D_weights", "shape": [3, 3, 3, 32], "dtype": "float32"}, {"name": "StatefulPartitionedCall/sequential/keras_layer/StatefulPartitionedCall/StatefulPartitionedCall/StatefulPartitionedCall/predict/MobilenetV2/Conv/Conv2D_bn_offset", "shape": [32], "dtype": "float32"}, {"name": "StatefulPartitionedCall/sequential/keras_layer/StatefulPartitionedCall/StatefulPartitionedCall/StatefulPartitionedCall/predict/MobilenetV2/expanded_conv_14/expand/Conv2D_bn_offset", "shape": [960], "dtype": "float32"}, {"name": "StatefulPartitionedCall/sequential/keras_layer/StatefulPartitionedCall/StatefulPartitionedCall/StatefulPartitionedCall/predict/MobilenetV2/expanded_conv/depthwise/depthwise_weights", "shape": [3, 3, 32, 1], "dtype": "float32"}, {"name": "StatefulPartitionedCall/sequential/keras_layer/StatefulPartitionedCall/StatefulPartitionedCall/StatefulPartitionedCall/predict/MobilenetV2/expanded_conv/depthwise/depthwise_bn_offset", "shape": [32], "dtype": "float32"}, {"name": "StatefulPartitionedCall/sequential/keras_layer/StatefulPartitionedCall/StatefulPartitionedCall/StatefulPartitionedCall/predict/MobilenetV2/expanded_conv/project/Conv2D_weights", "shape": [1, 1, 32, 16], "dtype": "float32"}, {"name": "StatefulPartitionedCall/sequential/keras_layer/StatefulPartitionedCall/StatefulPartitionedCall/StatefulPartitionedCall/predict/MobilenetV2/Conv_1/Conv2D_weights", "shape": [1, 1, 320, 1280], "dtype": "float32"}, {"name": "StatefulPartitionedCall/sequential/keras_layer/StatefulPartitionedCall/StatefulPartitionedCall/StatefulPartitionedCall/predict/MobilenetV2/expanded_conv/project/Conv2D_bn_offset", "shape": [16], "dtype": "float32"}, {"name": "StatefulPartitionedCall/sequential/keras_layer/StatefulPartitionedCall/StatefulPartitionedCall/StatefulPartitionedCall/predict/MobilenetV2/expanded_conv_1/expand/Conv2D_weights", "shape": [1, 1, 16, 96], "dtype": "float32"}, {"name": "StatefulPartitionedCall/sequential/keras_layer/StatefulPartitionedCall/StatefulPartitionedCall/StatefulPartitionedCall/predict/MobilenetV2/expanded_conv_1/expand/Conv2D_bn_offset", "shape": [96], "dtype": "float32"}, {"name": "StatefulPartitionedCall/sequential/keras_layer/StatefulPartitionedCall/StatefulPartitionedCall/StatefulPartitionedCall/predict/MobilenetV2/expanded_conv_14/depthwise/depthwise_weights", "shape": [3, 3, 960, 1], "dtype": "float32"}, {"name": "StatefulPartitionedCall/sequential/keras_layer/StatefulPartitionedCall/StatefulPartitionedCall/StatefulPartitionedCall/predict/MobilenetV2/expanded_conv_1/depthwise/depthwise_weights", "shape": [3, 3, 96, 1], "dtype": "float32"}, {"name": "StatefulPartitionedCall/sequential/keras_layer/StatefulPartitionedCall/StatefulPartitionedCall/StatefulPartitionedCall/predict/MobilenetV2/expanded_conv_1/depthwise/depthwise_bn_offset", "shape": [96], "dtype": "float32"}, {"name": "StatefulPartitionedCall/sequential/keras_layer/StatefulPartitionedCall/StatefulPartitionedCall/StatefulPartitionedCall/predict/MobilenetV2/expanded_conv_1/project/Conv2D_weights", "shape": [1, 1, 96, 24], "dtype": "float32"}, {"name": "StatefulPartitionedCall/sequential/keras_layer/StatefulPartitionedCall/StatefulPartitionedCall/StatefulPartitionedCall/predict/MobilenetV2/expanded_conv_1/project/Conv2D_bn_offset", "shape": [24], "dtype": "float32"}, {"name": "StatefulPartitionedCall/sequential/keras_layer/StatefulPartitionedCall/StatefulPartitionedCall/StatefulPartitionedCall/predict/MobilenetV2/expanded_conv_2/expand/Conv2D_weights", "shape": [1, 1, 24, 144], "dtype": "float32"}, {"name": "StatefulPartitionedCall/sequential/keras_layer/StatefulPartitionedCall/StatefulPartitionedCall/StatefulPartitionedCall/predict/MobilenetV2/expanded_conv_14/depthwise/depthwise_bn_offset", "shape": [960], "dtype": "float32"}, {"name": "StatefulPartitionedCall/sequential/keras_layer/StatefulPartitionedCall/StatefulPartitionedCall/StatefulPartitionedCall/predict/MobilenetV2/expanded_conv_2/expand/Conv2D_bn_offset", "shape": [144], "dtype": "float32"}, {"name": "StatefulPartitionedCall/sequential/keras_layer/StatefulPartitionedCall/StatefulPartitionedCall/StatefulPartitionedCall/predict/MobilenetV2/expanded_conv_2/depthwise/depthwise_weights", "shape": [3, 3, 144, 1], "dtype": "float32"}, {"name": "StatefulPartitionedCall/sequential/keras_layer/StatefulPartitionedCall/StatefulPartitionedCall/StatefulPartitionedCall/predict/MobilenetV2/expanded_conv_2/depthwise/depthwise_bn_offset", "shape": [144], "dtype": "float32"}, {"name": "StatefulPartitionedCall/sequential/keras_layer/StatefulPartitionedCall/StatefulPartitionedCall/StatefulPartitionedCall/predict/MobilenetV2/expanded_conv_2/project/Conv2D_weights", "shape": [1, 1, 144, 24], "dtype": "float32"}, {"name": "StatefulPartitionedCall/sequential/keras_layer/StatefulPartitionedCall/StatefulPartitionedCall/StatefulPartitionedCall/predict/MobilenetV2/expanded_conv_2/project/Conv2D_bn_offset", "shape": [24], "dtype": "float32"}, {"name": "StatefulPartitionedCall/sequential/keras_layer/StatefulPartitionedCall/StatefulPartitionedCall/StatefulPartitionedCall/predict/MobilenetV2/expanded_conv_3/expand/Conv2D_weights", "shape": [1, 1, 24, 144], "dtype": "float32"}, {"name": "StatefulPartitionedCall/sequential/keras_layer/StatefulPartitionedCall/StatefulPartitionedCall/StatefulPartitionedCall/predict/MobilenetV2/expanded_conv_14/project/Conv2D_weights", "shape": [1, 1, 960, 160], "dtype": "float32"}, {"name": "StatefulPartitionedCall/sequential/keras_layer/StatefulPartitionedCall/StatefulPartitionedCall/StatefulPartitionedCall/predict/MobilenetV2/expanded_conv_3/expand/Conv2D_bn_offset", "shape": [144], "dtype": "float32"}, {"name": "StatefulPartitionedCall/sequential/keras_layer/StatefulPartitionedCall/StatefulPartitionedCall/StatefulPartitionedCall/predict/MobilenetV2/expanded_conv_3/depthwise/depthwise_weights", "shape": [3, 3, 144, 1], "dtype": "float32"}, {"name": "StatefulPartitionedCall/sequential/keras_layer/StatefulPartitionedCall/StatefulPartitionedCall/StatefulPartitionedCall/predict/MobilenetV2/expanded_conv_3/depthwise/depthwise_bn_offset", "shape": [144], "dtype": "float32"}, {"name": "StatefulPartitionedCall/sequential/keras_layer/StatefulPartitionedCall/StatefulPartitionedCall/StatefulPartitionedCall/predict/MobilenetV2/expanded_conv_3/project/Conv2D_weights", "shape": [1, 1, 144, 32], "dtype": "float32"}, {"name": "StatefulPartitionedCall/sequential/keras_layer/StatefulPartitionedCall/StatefulPartitionedCall/StatefulPartitionedCall/predict/MobilenetV2/expanded_conv_14/project/Conv2D_bn_offset", "shape": [160], "dtype": "float32"}, {"name": "StatefulPartitionedCall/sequential/keras_layer/StatefulPartitionedCall/StatefulPartitionedCall/StatefulPartitionedCall/predict/MobilenetV2/expanded_conv_3/project/Conv2D_bn_offset", "shape": [32], "dtype": "float32"}, {"name": "StatefulPartitionedCall/sequential/keras_layer/StatefulPartitionedCall/StatefulPartitionedCall/StatefulPartitionedCall/predict/MobilenetV2/expanded_conv_4/expand/Conv2D_weights", "shape": [1, 1, 32, 192], "dtype": "float32"}, {"name": "StatefulPartitionedCall/sequential/keras_layer/StatefulPartitionedCall/StatefulPartitionedCall/StatefulPartitionedCall/predict/MobilenetV2/expanded_conv_4/expand/Conv2D_bn_offset", "shape": [192], "dtype": "float32"}, {"name": "StatefulPartitionedCall/sequential/keras_layer/StatefulPartitionedCall/StatefulPartitionedCall/StatefulPartitionedCall/predict/MobilenetV2/expanded_conv_4/depthwise/depthwise_weights", "shape": [3, 3, 192, 1], "dtype": "float32"}, {"name": "StatefulPartitionedCall/sequential/keras_layer/StatefulPartitionedCall/StatefulPartitionedCall/StatefulPartitionedCall/predict/MobilenetV2/expanded_conv_4/depthwise/depthwise_bn_offset", "shape": [192], "dtype": "float32"}, {"name": "StatefulPartitionedCall/sequential/keras_layer/StatefulPartitionedCall/StatefulPartitionedCall/StatefulPartitionedCall/predict/MobilenetV2/expanded_conv_4/project/Conv2D_weights", "shape": [1, 1, 192, 32], "dtype": "float32"}, {"name": "StatefulPartitionedCall/sequential/keras_layer/StatefulPartitionedCall/StatefulPartitionedCall/StatefulPartitionedCall/predict/MobilenetV2/expanded_conv_15/expand/Conv2D_weights", "shape": [1, 1, 160, 960], "dtype": "float32"}, {"name": "StatefulPartitionedCall/sequential/keras_layer/StatefulPartitionedCall/StatefulPartitionedCall/StatefulPartitionedCall/predict/MobilenetV2/expanded_conv_4/project/Conv2D_bn_offset", "shape": [32], "dtype": "float32"}, {"name": "StatefulPartitionedCall/sequential/keras_layer/StatefulPartitionedCall/StatefulPartitionedCall/StatefulPartitionedCall/predict/MobilenetV2/expanded_conv_5/expand/Conv2D_weights", "shape": [1, 1, 32, 192], "dtype": "float32"}, {"name": "StatefulPartitionedCall/sequential/keras_layer/StatefulPartitionedCall/StatefulPartitionedCall/StatefulPartitionedCall/predict/MobilenetV2/Conv_1/Conv2D_bn_offset", "shape": [1280], "dtype": "float32"}, {"name": "StatefulPartitionedCall/sequential/keras_layer/StatefulPartitionedCall/StatefulPartitionedCall/StatefulPartitionedCall/predict/MobilenetV2/expanded_conv_5/expand/Conv2D_bn_offset", "shape": [192], "dtype": "float32"}, {"name": "StatefulPartitionedCall/sequential/keras_layer/StatefulPartitionedCall/StatefulPartitionedCall/StatefulPartitionedCall/predict/MobilenetV2/expanded_conv_15/expand/Conv2D_bn_offset", "shape": [960], "dtype": "float32"}, {"name": "StatefulPartitionedCall/sequential/keras_layer/StatefulPartitionedCall/StatefulPartitionedCall/StatefulPartitionedCall/predict/MobilenetV2/expanded_conv_5/depthwise/depthwise_weights", "shape": [3, 3, 192, 1], "dtype": "float32"}, {"name": "StatefulPartitionedCall/sequential/keras_layer/StatefulPartitionedCall/StatefulPartitionedCall/StatefulPartitionedCall/predict/MobilenetV2/expanded_conv_5/depthwise/depthwise_bn_offset", "shape": [192], "dtype": "float32"}, {"name": "StatefulPartitionedCall/sequential/keras_layer/StatefulPartitionedCall/StatefulPartitionedCall/StatefulPartitionedCall/predict/MobilenetV2/expanded_conv_5/project/Conv2D_weights", "shape": [1, 1, 192, 32], "dtype": "float32"}, {"name": "StatefulPartitionedCall/sequential/keras_layer/StatefulPartitionedCall/StatefulPartitionedCall/StatefulPartitionedCall/predict/MobilenetV2/expanded_conv_5/project/Conv2D_bn_offset", "shape": [32], "dtype": "float32"}, {"name": "StatefulPartitionedCall/sequential/keras_layer/StatefulPartitionedCall/StatefulPartitionedCall/StatefulPartitionedCall/predict/MobilenetV2/expanded_conv_6/expand/Conv2D_weights", "shape": [1, 1, 32, 192], "dtype": "float32"}, {"name": "StatefulPartitionedCall/sequential/keras_layer/StatefulPartitionedCall/StatefulPartitionedCall/StatefulPartitionedCall/predict/MobilenetV2/expanded_conv_6/expand/Conv2D_bn_offset", "shape": [192], "dtype": "float32"}, {"name": "StatefulPartitionedCall/sequential/keras_layer/StatefulPartitionedCall/StatefulPartitionedCall/StatefulPartitionedCall/predict/MobilenetV2/expanded_conv_15/depthwise/depthwise_weights", "shape": [3, 3, 960, 1], "dtype": "float32"}, {"name": "StatefulPartitionedCall/sequential/keras_layer/StatefulPartitionedCall/StatefulPartitionedCall/StatefulPartitionedCall/predict/MobilenetV2/expanded_conv_6/depthwise/depthwise_weights", "shape": [3, 3, 192, 1], "dtype": "float32"}, {"name": "StatefulPartitionedCall/sequential/keras_layer/StatefulPartitionedCall/StatefulPartitionedCall/StatefulPartitionedCall/predict/MobilenetV2/expanded_conv_6/depthwise/depthwise_bn_offset", "shape": [192], "dtype": "float32"}, {"name": "StatefulPartitionedCall/sequential/keras_layer/StatefulPartitionedCall/StatefulPartitionedCall/StatefulPartitionedCall/predict/MobilenetV2/expanded_conv_6/project/Conv2D_weights", "shape": [1, 1, 192, 64], "dtype": "float32"}, {"name": "StatefulPartitionedCall/sequential/keras_layer/StatefulPartitionedCall/StatefulPartitionedCall/StatefulPartitionedCall/predict/MobilenetV2/expanded_conv_6/project/Conv2D_bn_offset", "shape": [64], "dtype": "float32"}, {"name": "StatefulPartitionedCall/sequential/keras_layer/StatefulPartitionedCall/StatefulPartitionedCall/StatefulPartitionedCall/predict/MobilenetV2/expanded_conv_7/expand/Conv2D_weights", "shape": [1, 1, 64, 384], "dtype": "float32"}, {"name": "StatefulPartitionedCall/sequential/keras_layer/StatefulPartitionedCall/StatefulPartitionedCall/StatefulPartitionedCall/predict/MobilenetV2/expanded_conv_15/depthwise/depthwise_bn_offset", "shape": [960], "dtype": "float32"}, {"name": "StatefulPartitionedCall/sequential/keras_layer/StatefulPartitionedCall/StatefulPartitionedCall/StatefulPartitionedCall/predict/MobilenetV2/expanded_conv_7/expand/Conv2D_bn_offset", "shape": [384], "dtype": "float32"}, {"name": "StatefulPartitionedCall/sequential/keras_layer/StatefulPartitionedCall/StatefulPartitionedCall/StatefulPartitionedCall/predict/MobilenetV2/expanded_conv_7/depthwise/depthwise_weights", "shape": [3, 3, 384, 1], "dtype": "float32"}, {"name": "StatefulPartitionedCall/sequential/keras_layer/StatefulPartitionedCall/StatefulPartitionedCall/StatefulPartitionedCall/predict/MobilenetV2/expanded_conv_7/depthwise/depthwise_bn_offset", "shape": [384], "dtype": "float32"}, {"name": "StatefulPartitionedCall/sequential/keras_layer/StatefulPartitionedCall/StatefulPartitionedCall/StatefulPartitionedCall/predict/MobilenetV2/expanded_conv_7/project/Conv2D_weights", "shape": [1, 1, 384, 64], "dtype": "float32"}, {"name": "StatefulPartitionedCall/sequential/keras_layer/StatefulPartitionedCall/StatefulPartitionedCall/StatefulPartitionedCall/predict/MobilenetV2/expanded_conv_7/project/Conv2D_bn_offset", "shape": [64], "dtype": "float32"}, {"name": "StatefulPartitionedCall/sequential/keras_layer/StatefulPartitionedCall/StatefulPartitionedCall/StatefulPartitionedCall/predict/MobilenetV2/expanded_conv_8/expand/Conv2D_weights", "shape": [1, 1, 64, 384], "dtype": "float32"}, {"name": "StatefulPartitionedCall/sequential/keras_layer/StatefulPartitionedCall/StatefulPartitionedCall/StatefulPartitionedCall/predict/MobilenetV2/expanded_conv_15/project/Conv2D_weights", "shape": [1, 1, 960, 160], "dtype": "float32"}, {"name": "StatefulPartitionedCall/sequential/keras_layer/StatefulPartitionedCall/StatefulPartitionedCall/StatefulPartitionedCall/predict/MobilenetV2/expanded_conv_8/expand/Conv2D_bn_offset", "shape": [384], "dtype": "float32"}, {"name": "StatefulPartitionedCall/sequential/keras_layer/StatefulPartitionedCall/StatefulPartitionedCall/StatefulPartitionedCall/predict/MobilenetV2/expanded_conv_8/depthwise/depthwise_weights", "shape": [3, 3, 384, 1], "dtype": "float32"}, {"name": "StatefulPartitionedCall/sequential/keras_layer/StatefulPartitionedCall/StatefulPartitionedCall/StatefulPartitionedCall/predict/MobilenetV2/expanded_conv_8/depthwise/depthwise_bn_offset", "shape": [384], "dtype": "float32"}, {"name": "StatefulPartitionedCall/sequential/keras_layer/StatefulPartitionedCall/StatefulPartitionedCall/StatefulPartitionedCall/predict/MobilenetV2/expanded_conv_8/project/Conv2D_weights", "shape": [1, 1, 384, 64], "dtype": "float32"}, {"name": "StatefulPartitionedCall/sequential/keras_layer/StatefulPartitionedCall/StatefulPartitionedCall/StatefulPartitionedCall/predict/MobilenetV2/expanded_conv_15/project/Conv2D_bn_offset", "shape": [160], "dtype": "float32"}, {"name": "StatefulPartitionedCall/sequential/keras_layer/StatefulPartitionedCall/StatefulPartitionedCall/StatefulPartitionedCall/predict/MobilenetV2/expanded_conv_8/project/Conv2D_bn_offset", "shape": [64], "dtype": "float32"}, {"name": "StatefulPartitionedCall/sequential/keras_layer/StatefulPartitionedCall/StatefulPartitionedCall/StatefulPartitionedCall/predict/MobilenetV2/expanded_conv_9/expand/Conv2D_weights", "shape": [1, 1, 64, 384], "dtype": "float32"}, {"name": "StatefulPartitionedCall/sequential/keras_layer/StatefulPartitionedCall/StatefulPartitionedCall/StatefulPartitionedCall/predict/MobilenetV2/expanded_conv_9/expand/Conv2D_bn_offset", "shape": [384], "dtype": "float32"}, {"name": "StatefulPartitionedCall/sequential/keras_layer/StatefulPartitionedCall/StatefulPartitionedCall/StatefulPartitionedCall/predict/MobilenetV2/expanded_conv_9/depthwise/depthwise_weights", "shape": [3, 3, 384, 1], "dtype": "float32"}, {"name": "StatefulPartitionedCall/sequential/keras_layer/StatefulPartitionedCall/StatefulPartitionedCall/StatefulPartitionedCall/predict/MobilenetV2/expanded_conv_9/depthwise/depthwise_bn_offset", "shape": [384], "dtype": "float32"}, {"name": "StatefulPartitionedCall/sequential/keras_layer/StatefulPartitionedCall/StatefulPartitionedCall/StatefulPartitionedCall/predict/MobilenetV2/expanded_conv_9/project/Conv2D_weights", "shape": [1, 1, 384, 64], "dtype": "float32"}, {"name": "StatefulPartitionedCall/sequential/keras_layer/StatefulPartitionedCall/StatefulPartitionedCall/StatefulPartitionedCall/predict/MobilenetV2/expanded_conv_16/expand/Conv2D_weights", "shape": [1, 1, 160, 960], "dtype": "float32"}, {"name": "StatefulPartitionedCall/sequential/keras_layer/StatefulPartitionedCall/StatefulPartitionedCall/StatefulPartitionedCall/predict/MobilenetV2/expanded_conv_9/project/Conv2D_bn_offset", "shape": [64], "dtype": "float32"}, {"name": "StatefulPartitionedCall/sequential/keras_layer/StatefulPartitionedCall/StatefulPartitionedCall/StatefulPartitionedCall/predict/MobilenetV2/expanded_conv_10/expand/Conv2D_weights", "shape": [1, 1, 64, 384], "dtype": "float32"}, {"name": "StatefulPartitionedCall/sequential/keras_layer/StatefulPartitionedCall/StatefulPartitionedCall/StatefulPartitionedCall/predict/MobilenetV2/expanded_conv_10/expand/Conv2D_bn_offset", "shape": [384], "dtype": "float32"}, {"name": "StatefulPartitionedCall/sequential/keras_layer/StatefulPartitionedCall/StatefulPartitionedCall/StatefulPartitionedCall/predict/MobilenetV2/expanded_conv_16/expand/Conv2D_bn_offset", "shape": [960], "dtype": "float32"}, {"name": "StatefulPartitionedCall/sequential/keras_layer/StatefulPartitionedCall/StatefulPartitionedCall/StatefulPartitionedCall/predict/MobilenetV2/expanded_conv_10/depthwise/depthwise_weights", "shape": [3, 3, 384, 1], "dtype": "float32"}, {"name": "StatefulPartitionedCall/sequential/keras_layer/StatefulPartitionedCall/StatefulPartitionedCall/StatefulPartitionedCall/predict/MobilenetV2/expanded_conv_10/depthwise/depthwise_bn_offset", "shape": [384], "dtype": "float32"}, {"name": "StatefulPartitionedCall/sequential/keras_layer/StatefulPartitionedCall/StatefulPartitionedCall/StatefulPartitionedCall/predict/MobilenetV2/expanded_conv_10/project/Conv2D_weights", "shape": [1, 1, 384, 96], "dtype": "float32"}, {"name": "StatefulPartitionedCall/sequential/keras_layer/StatefulPartitionedCall/StatefulPartitionedCall/StatefulPartitionedCall/predict/MobilenetV2/expanded_conv_10/project/Conv2D_bn_offset", "shape": [96], "dtype": "float32"}, {"name": "StatefulPartitionedCall/sequential/keras_layer/StatefulPartitionedCall/StatefulPartitionedCall/StatefulPartitionedCall/predict/MobilenetV2/expanded_conv_11/expand/Conv2D_weights", "shape": [1, 1, 96, 576], "dtype": "float32"}, {"name": "StatefulPartitionedCall/sequential/keras_layer/StatefulPartitionedCall/StatefulPartitionedCall/StatefulPartitionedCall/predict/MobilenetV2/expanded_conv_11/expand/Conv2D_bn_offset", "shape": [576], "dtype": "float32"}, {"name": "StatefulPartitionedCall/sequential/keras_layer/StatefulPartitionedCall/StatefulPartitionedCall/StatefulPartitionedCall/predict/MobilenetV2/expanded_conv_16/depthwise/depthwise_weights", "shape": [3, 3, 960, 1], "dtype": "float32"}, {"name": "StatefulPartitionedCall/sequential/keras_layer/StatefulPartitionedCall/StatefulPartitionedCall/StatefulPartitionedCall/predict/MobilenetV2/expanded_conv_11/depthwise/depthwise_weights", "shape": [3, 3, 576, 1], "dtype": "float32"}, {"name": "StatefulPartitionedCall/sequential/keras_layer/StatefulPartitionedCall/StatefulPartitionedCall/StatefulPartitionedCall/predict/MobilenetV2/expanded_conv_11/depthwise/depthwise_bn_offset", "shape": [576], "dtype": "float32"}, {"name": "StatefulPartitionedCall/sequential/keras_layer/StatefulPartitionedCall/StatefulPartitionedCall/StatefulPartitionedCall/predict/MobilenetV2/expanded_conv_11/project/Conv2D_weights", "shape": [1, 1, 576, 96], "dtype": "float32"}, {"name": "StatefulPartitionedCall/sequential/keras_layer/StatefulPartitionedCall/StatefulPartitionedCall/StatefulPartitionedCall/predict/MobilenetV2/expanded_conv_11/project/Conv2D_bn_offset", "shape": [96], "dtype": "float32"}, {"name": "StatefulPartitionedCall/sequential/keras_layer/StatefulPartitionedCall/StatefulPartitionedCall/StatefulPartitionedCall/predict/MobilenetV2/expanded_conv_12/expand/Conv2D_weights", "shape": [1, 1, 96, 576], "dtype": "float32"}, {"name": "StatefulPartitionedCall/sequential/keras_layer/StatefulPartitionedCall/StatefulPartitionedCall/StatefulPartitionedCall/predict/MobilenetV2/expanded_conv_16/depthwise/depthwise_bn_offset", "shape": [960], "dtype": "float32"}, {"name": "StatefulPartitionedCall/sequential/keras_layer/StatefulPartitionedCall/StatefulPartitionedCall/StatefulPartitionedCall/predict/MobilenetV2/expanded_conv_12/expand/Conv2D_bn_offset", "shape": [576], "dtype": "float32"}, {"name": "StatefulPartitionedCall/sequential/keras_layer/StatefulPartitionedCall/StatefulPartitionedCall/StatefulPartitionedCall/predict/MobilenetV2/expanded_conv_12/depthwise/depthwise_weights", "shape": [3, 3, 576, 1], "dtype": "float32"}, {"name": "StatefulPartitionedCall/sequential/keras_layer/StatefulPartitionedCall/StatefulPartitionedCall/StatefulPartitionedCall/predict/MobilenetV2/expanded_conv_12/depthwise/depthwise_bn_offset", "shape": [576], "dtype": "float32"}, {"name": "StatefulPartitionedCall/sequential/keras_layer/StatefulPartitionedCall/StatefulPartitionedCall/StatefulPartitionedCall/predict/MobilenetV2/expanded_conv_12/project/Conv2D_weights", "shape": [1, 1, 576, 96], "dtype": "float32"}, {"name": "StatefulPartitionedCall/sequential/keras_layer/StatefulPartitionedCall/StatefulPartitionedCall/StatefulPartitionedCall/predict/MobilenetV2/expanded_conv_12/project/Conv2D_bn_offset", "shape": [96], "dtype": "float32"}, {"name": "StatefulPartitionedCall/sequential/keras_layer/StatefulPartitionedCall/StatefulPartitionedCall/StatefulPartitionedCall/predict/MobilenetV2/expanded_conv_13/expand/Conv2D_weights", "shape": [1, 1, 96, 576], "dtype": "float32"}, {"name": "StatefulPartitionedCall/sequential/keras_layer/StatefulPartitionedCall/StatefulPartitionedCall/StatefulPartitionedCall/predict/MobilenetV2/expanded_conv_16/project/Conv2D_weights", "shape": [1, 1, 960, 320], "dtype": "float32"}, {"name": "StatefulPartitionedCall/sequential/keras_layer/StatefulPartitionedCall/StatefulPartitionedCall/StatefulPartitionedCall/predict/MobilenetV2/expanded_conv_13/expand/Conv2D_bn_offset", "shape": [576], "dtype": "float32"}, {"name": "StatefulPartitionedCall/sequential/keras_layer/StatefulPartitionedCall/StatefulPartitionedCall/StatefulPartitionedCall/predict/MobilenetV2/expanded_conv_13/depthwise/depthwise_weights", "shape": [3, 3, 576, 1], "dtype": "float32"}, {"name": "StatefulPartitionedCall/sequential/keras_layer/StatefulPartitionedCall/StatefulPartitionedCall/StatefulPartitionedCall/predict/MobilenetV2/expanded_conv_13/depthwise/depthwise_bn_offset", "shape": [576], "dtype": "float32"}, {"name": "StatefulPartitionedCall/sequential/keras_layer/StatefulPartitionedCall/StatefulPartitionedCall/StatefulPartitionedCall/predict/MobilenetV2/expanded_conv_13/project/Conv2D_weights", "shape": [1, 1, 576, 160], "dtype": "float32"}, {"name": "StatefulPartitionedCall/sequential/keras_layer/StatefulPartitionedCall/StatefulPartitionedCall/StatefulPartitionedCall/predict/MobilenetV2/expanded_conv_16/project/Conv2D_bn_offset", "shape": [320], "dtype": "float32"}, {"name": "StatefulPartitionedCall/sequential/keras_layer/StatefulPartitionedCall/StatefulPartitionedCall/StatefulPartitionedCall/predict/MobilenetV2/expanded_conv_13/project/Conv2D_bn_offset", "shape": [160], "dtype": "float32"}, {"name": "StatefulPartitionedCall/sequential/keras_layer/StatefulPartitionedCall/StatefulPartitionedCall/StatefulPartitionedCall/predict/MobilenetV2/expanded_conv_14/expand/Conv2D_weights", "shape": [1, 1, 160, 960], "dtype": "float32"}, {"name": "StatefulPartitionedCall/sequential/dense/MatMul/ReadVariableOp", "shape": [1280, 3], "dtype": "float32"}, {"name": "StatefulPartitionedCall/sequential/dense/BiasAdd/ReadVariableOp", "shape": [3], "dtype": "float32"}, {"name": "StatefulPartitionedCall/sequential/keras_layer/StatefulPartitionedCall/StatefulPartitionedCall/StatefulPartitionedCall/predict/hub_input/Mul/y", "shape": [], "dtype": "float32"}, {"name": "StatefulPartitionedCall/sequential/keras_layer/StatefulPartitionedCall/StatefulPartitionedCall/StatefulPartitionedCall/predict/hub_input/Sub/y", "shape": [], "dtype": "float32"}]}]}